Project_data/timeseries_generator.pth (torch, 609564 bytes, 8 tensors)

lstm.weight_ih_l0 f4 [512, 100]
00000000: 76d7 36bd 3fb8 86bc 5b74 d1bc 5ba4 8d3d
00000010: f95b a0bd 1b3d 783c c16d 523d 5fec 873d
00000020: 7937 55bd c188 a0bc 56d9 653d a419 ef3b
00000030: 1395 a03a 87ca bfbc f1bf 34bd dbbf 2d3d
00000040: f8fc 673c 15b9 6a3c 64bc 8a3d 5398 18bd
00000050: 459a 143d c2d2 89bc 0474 30bd a113 a2bd
00000060: 2374 623d 5b6c 623b eee2 33bc 63a2 033c
00000070: 2598 2d3d f746 af3d 1f59 a33d 9172 9fbd
00000080: 4ad6 01bd 0741 5cbd b925 efbc 1c4c 9c3c
00000090: da9e aa3d 27a9 f2bb 288c b63c 4135 b33d
000000a0: 2f6e ec3c 3afc 963d 8f57 b93a 0f36 263d
000000b0: 6259 84bd bd9d 07bd f36f e23d 40b7 abbd
000000c0: 7f74 643d e9d0 8fbd 2bb5 d23b af0f 5bbd
000000d0: d5be bcbc af01 853d e0da a33d 1194 c4bd
000000e0: 46ad a13d 5013 cabd f9ae 0a3d 845b 4ebb
000000f0: 9291 693d fbd5 f8bc 9556 9ebd 9a01 2e3d
00000100: e050 0cbc 917a f2bc f403 353c 52a2 8b3d
00000110: 2feb 033d 2d05 823d 172c 8a3d 18ca 8cbd
00000120: 1296 b93c 770f c93d d614 a0bc 92a8 a03d
00000130: d27b 0c3b cb2c 51bd a724 febc 9c33 19bb
00000140: edd1 5d3d 5615 9b3b eadf 7cbd 8f05 9b3d
00000150: 14aa a9bd 344a 9cbd 607d 623d 2d6b 3ebb
00000160: 89b4 7dbd 146b 87bd 2a73 a63d c41b cfbd
00000170: 6a24 013c 9736 9abd 1286 b8bd 5713 3b3d
00000180: de03 cabc e78d b5bc 2f45 c43d 0ede c13c
00000190: 31a0 a9bc 225a 02bc 3019 8dbd 1f6c 2d3d
000001a0: dc73 8abc ff14 013e 70ec 393d bfe0 af3d
000001b0: 0f8f 983d b71c 023d f1ed debc 85b6 fdbd
000001c0: 868e f83c b5d9 fe3c f16e c0bc 6932 35bb
000001d0: c1fe fb3c edfb 313a 477d 8f3c 7d08 d6bd
000001e0: e0f2 c4bd e9ce c5bd 1ca0 9e3b 113b e9bc
000001f0: e594 12bd 2bb3 e0bd ceae d0bc 52b4 4f3d
00000200: 270b a93d 283e c3bd 527d 3e3d 099d 803d
00000210: 9972 41bc f8cf e5bc 6100 63bd 9628 85bd
00000220: 78cf 573d 0922 bdbc 3413 523b 8d2d 683d
00000230: c84e 493d 7882 39bc 77e1 9b3b 0af9 da3b
00000240: c113 aebc 167d 463d dca9 a43d d168 b8bd
00000250: a489 a2bd bb5c f4bb e5d0 e63b 48fb fcbc
00000260: 23b2 11bd ed90 68bd 347e ad3d 8991 953c
00000270: 3b75 c63d 8972 4a3d f372 053d ad2b 73bd
00000280: 4be6 b7bd 6ad2 c83d 8e0d 2c3d 42f7 ef3c
00000290: c2cd db3d 0328 403d 6ebd b33c f96a cabb
000002a0: 5a01 2ebd 5c1c a1bc ca1d c13d 934f e83c
000002b0: f2fe c5bd 0530 7c3c f4a0 9ebd 9661 6ebc
000002c0: 61a9 bebd 3eed 003d 27b2 98ba 3c50 c2bd
000002d0: adc0 cb3b 8445 8e3c e138 953d 2423 3f3d
000002e0: 42f8 703b 1251 c8bc 6023 c73d 3654 80bc
000002f0: 8169 66bd 2898 a93b 248e bc3d 49fa f03c
00000300: 4b14 49bd 154a 76bc 7413 2abd 0f87 9bbc
00000310: b741 be3d 40b7 913c c131 d63d f030 1abb
00000320: f53a cdbc 0956 b9bd d576 15bc d581 a2bd
00000330: de24 bdbc 27a2 043d 343b 6a3d ff5b 0c3d
00000340: 6995 233d afa5 313d 0d18 1d3d 0b41 92bd
00000350: 688d 613d a21d 94bd af88 9abd ef09 8fb9
00000360: 61a9 8cbc ef44 66bd f33d 523d ef77 b1bc
00000370: 0904 cfbc ebbb b8bd fdbe 593c 5761 c03d
00000380: f9d1 103d 4b56 cabd 85da 763d fa89 84bb
00000390: 4e5c dabc 5940 113d 47ac ffbc 5fc3 923c
000003a0: 3769 9cbb 285a b23d 505b c73c 069e 283d
000003b0: 04ac 40bd 5c7d aabd 7be4 e4bc 6822 6bbc
000003c0: 4e01 ad3d 81f8 93bc b805 fe3b 06b3 f4bc
000003d0: f7d4 6b3b 13ba 393d a605 163d 804b 9bbd
000003e0: aa74 983c 2c1c 01be 40ef abbd ba22 763c
000003f0: 7bd9 47bd 2e6a 643d d276 683d 52ad 87bd
-0.044639073 -0.016445277 -0.025568178 0.06916114 -0.078300424 0.015151287 0.0513742 0.06636881
-0.052054856 -0.01959646 0.05611547 0.007296758 0.0012251459 -0.023412002 -0.044128362 0.042419296
0.014159434 0.014326354 0.06774214 -0.037254643 0.036279935 -0.01682413 -0.04307939 -0.079139
0.055286538 0.0034549448 -0.010979397 0.0080343215 0.042381424 0.08558457 0.07975983 -0.07785524
-0.031698503 -0.053772952 -0.029192792 0.01907926 0.0833108 -0.0074054184 0.022283629 0.08750392
0.028861133 0.07372327 0.0014140474 0.040578898 -0.06462361 -0.033109415 0.11056509 -0.083845615
0.05577516 -0.07022268 0.0064302883 -0.053481754 -0.023040215 0.06494462 0.080007315 -0.09598554
0.078943774 -0.09866965 0.033858273 -0.0031487653 0.057023592 -0.030375471 -0.07731358 0.042481996
-0.008564204 -0.02959946 0.011048306 0.068180695 0.03220671 0.063486435 0.06746691 -0.06874484
0.022654567 0.09817403 -0.019541185 0.07844652 0.0021436107 -0.05106811 -0.031023337 -0.002337671
0.05415528 0.004732768 -0.06173698 0.075694196 -0.08284393 -0.076313406 0.05529535 -0.002905558
-0.06193975 -0.066122204 0.081274346 -0.10112718 0.007882217 -0.075299434 -0.09009947 0.04567274
-0.024660047 -0.02216239 0.09583508 0.023665454 -0.020706268 -0.00795606 -0.0688957 0.04233944
-0.01690095 0.12605666 0.0453915 0.08587789 0.07449161 0.031765666 -0.027213069 -0.123883285
0.030341398 0.03110967 -0.023490401 -0.0027648455 0.030761125 0.0006789554 0.017515792 -0.10450838
-0.09616637 -0.096586056 0.004840864 -0.028470548 -0.03578653 -0.109716736 -0.025473978 0.050709076
0.0825408 -0.0953334 0.046506234 0.06279952 -0.011807107 -0.028053269 -0.055420283 -0.06501882
0.052688092 -0.023087518 0.0032054903 0.056684066 0.049147397 -0.01132261 0.004757102 0.00668252
-0.021249654 0.048459135 0.080402106 -0.09004367 -0.07936409 -0.0074573434 0.007043945 -0.030881539
-0.035570275 -0.056778837 0.08471337 0.018257873 0.09690329 0.049425635 0.032580327 -0.059367824
-0.08979472 0.09805758 0.042005114 0.029292706 0.107326046 0.04691316 0.021940913 -0.006177303
-0.042481758 -0.019666843 0.0942951 0.028358256 -0.096677676 0.015392308 -0.07745543 -0.0145496335
-0.0930965 0.03147625 -0.0011649773 -0.0948796 0.006218037 0.017367132 0.072862394 0.046664372
0.0036769067 -0.02445272 0.09723544 -0.015665155 -0.05625296 0.005175609 0.09206799 0.02941622
-0.04909162 -0.015032311 -0.04152246 -0.0189853 0.09289878 0.017787576 0.104587086 -0.0023527704
-0.025052527 -0.09049613 -0.00912257 -0.0793492 -0.023088869 0.032381203 0.057185367 0.03426742
0.03993741 0.0433709 0.038353015 -0.07141312 0.055066496 -0.072322145 -0.075456016 -0.00027282487
-0.01717061 -0.056218084 0.05132861 -0.021663634 -0.025270479 -0.090202175 0.013290164 0.09393566
0.035356496 -0.0987974 0.06026699 -0.0040447684 -0.026655342 0.035461757 -0.031210078 0.017915426
-0.004773285 0.08708602 0.024335533 0.041166328 -0.047039047 -0.08324692 -0.02794098 -0.014351465
0.084475145 -0.018062832 0.0077521466 -0.029870521 0.0035985091 0.04534347 0.03662648 -0.0758276
0.018610317 -0.12608403 -0.08395243 0.015022928 -0.04879139 0.055765323 0.05675394 -0.06624855

lstm.weight_hh_l0 f4 [512, 128]
00000000: 0371 473c 8ccc 2dbe c1d3 823c fa83 2dbe
00000010: 6c11 bbbc 46e1 f0bd 2d9f 72bb 31d7 803b
00000020: a558 96bd 4fd5 433d 908f 26bc 55f4 f03d
00000030: 85f9 a0bd cd64 f33d 5191 013e da3c 00be
00000040: 16ab 5ebd 5caf 7cbd 2073 06bd 88ea 0e3c
00000050: 63d1 80bd 76ed 0dbc e36e efbc 6563 da3d
00000060: 90ba 003d 2615 95bd 630c e1bd 30ea bfbc
00000070: 5b98 8c3a 1578 03bd 2475 a53d 80b0 c6bc
00000080: 7601 283e 5129 63bc 6fc0 e43d 1a21 00be
00000090: 000e c43c d76d b23c 8c27 113e 190f efbd
000000a0: b572 a8bb 276d e03c 0b3b 2bbe 1750 af3d
000000b0: 0370 433d ce37 543d 12e0 07be c9a5 e3bd
000000c0: dafe 0f3e 2b51 e83c d246 afbd 7787 35bc
000000d0: eb11 efbd f009 01ba a523 edbd e7a6 0c3e
000000e0: b912 29be 6f25 2b3e f7ed f43d 390e ff3d
000000f0: 700b c3bc bfc7 ad3c 3418 06be 2649 1c3d
00000100: 1979 003e 91de 65bd 6281 ab3d 9214 de3d
00000110: 1601 04bb 810a 7b3d 7819 e4b9 2d7c ddbd
00000120: 5cd5 f2bd e5da f43c 2b05 d2bd 16a8 75bd
00000130: 01fb af3d 0875 4c3d b316 d03d 3fa8 123c
00000140: 7d5d 703d cacb 2a3d 298c 693d f0b9 313e
00000150: d8d6 92bd 7342 063e 6d0e 9a3c 8612 973d
00000160: b53b cbbd de24 1dbc b957 07be bcf6 1d3d
00000170: 1c39 6f3d de79 db3d 29d3 e83b da42 92bc
00000180: 8515 b83b 2012 56bd 159c d53d 0b6a d63c
00000190: c8a5 a9bc 02be 693d a997 7e3c 5f0f 2bbd
000001a0: a655 2a3d 631a 2b3e deff 203d 1543 dbbc
000001b0: 12a0 dbbd 1ce5 993d 0161 13be d265 3abd
000001c0: 74fd babb 5701 2bbd 0aac 033e e6a1 863b
000001d0: 23a2 573d be05 50bd 2600 0b3e a0c7 953d
000001e0: 8819 12bd da95 09be 4694 e4bd e0bf 95bd
000001f0: 6c2f df3b 37ca 66bd c222 b63d 0fd8 523d
00000200: 070b 1bbd e4e9 f63c 8fca c4bc 8ddf 89bd
00000210: 0476 6d3d c67c 19be ad20 723d 55ea 5f3c
00000220: 6cf1 0abe cc02 ca3d fd97 12be 1e95 513e
00000230: b3d2 ebbd b2b6 843d b780 d63c 13ce 06be
00000240: 55cb f2bd 5a10 fcbd 3103 dfbb c9d5 533d
00000250: 3069 04be cbae 1dbd d056 85bd b81a 583d
00000260: 9af6 5f3d bba9 d2bc 6b1b c2bc 25f5 4fbd
00000270: 3c57 abbd 22cb 95bd e9e8 cebc 8f7a e53d
00000280: 59a3 7dbd 1903 b4bc 51ea 033d 6e0d ab3c
00000290: e441 d4bd f3f1 bcbd 3af0 8e3d 1c30 31bd
000002a0: a9d8 fe3c 836c 2f3e bd03 cbbd 9e49 c83d
000002b0: 5596 17bd 2b10 f138 4fea afbd 54a0 0fbe
000002c0: 6a5f e73d 5300 443d 5b80 e9bd 1dee 7d3c
000002d0: d215 a93c 118e 9dbd fe43 99bd 0490 b63d
000002e0: 2966 ae3c e37e 093d 814f 0d3e 03cf 213e
000002f0: e212 86bb 298a e73d 1dbc bdbd 4f3b 4c3d
00000300: 2a26 183e 3d8f a83d ccb1 fe3c f7df 42bd
00000310: 186c 3dbd a1c9 2a3e ba9d 40bd 36e6 0abe
00000320: 3bb2 8dbd 83e7 853d c164 08bd 94b7 493d
00000330: 9775 c53d cd03 123e 8263 173e 18ca 7abd
00000340: 1901 7d3d 84b4 e8bd c66f d1bc 9cba 253e
00000350: 3009 ab3d 5677 fa3d f98b 68bc 1fc2 cb3d
00000360: 320b bbbd 42c3 bbbd 170e 25be d7e0 9c3d
00000370: d14e 1e3e 4387 85bd 4426 4b3d 05f2 7a3d
00000380: 3c22 b23d e306 83bd 23f5 64bc 621a 313d
00000390: 1ace 74bc 7abd d23b 3b8f 383d 2abe c0bd
000003a0: ef60 44bd 5809 653d b15b 283e e5dd 8dbd
000003b0: 16ca e7bd 48b0 9a3c c268 9cbc 2f09 803c
000003c0: 113c 4b3c 2ea0 acbd 5c00 a73d a72c b2bc
000003d0: 8d2e 25bd 82ff 42bd a145 033e 6011 7ebd
000003e0: 3a2e 8abd a59c f9bd 2f73 9a3c bf89 f7bd
000003f0: cb0e 70bd cf5b 03be ecdf 843c c2fd ac3d
0.01217294 -0.1697256 0.015970113 -0.16944876 -0.022835456 -0.117617175 -0.0037021146 0.003931903
-0.07341126 0.04781085 -0.010166064 0.11765353 -0.07860092 0.118844606 0.1265309 -0.12523213
-0.05436238 -0.061690673 -0.032824636 0.008722909 -0.06289937 -0.008662572 -0.02922768 0.10663489
0.03142792 -0.07279424 -0.10988691 -0.023427099 0.0010726558 -0.03209694 0.080789834 -0.024254084
0.16406807 -0.013864831 0.11169516 -0.12512627 0.023932457 0.021780891 0.14175242 -0.116728015
-0.0051406273 0.027395798 -0.16721742 0.08560198 0.047714245 0.051811032 -0.1326907 -0.111156054
0.14062062 0.028359016 -0.0855843 -0.011079661 -0.116733395 -0.000492244 -0.11579064 0.13735543
-0.16511048 0.16713499 0.11959451 0.12453885 -0.023809165 0.02121341 -0.1309517 0.038155697
0.12546195 -0.05612046 0.08374287 0.10843767 -0.0020142249 0.061289314 -0.00043506525 -0.108147
-0.11857101 0.029889533 -0.10254892 -0.059974752 0.08592797 0.049916297 0.101605795 0.008951246
0.058682907 0.041698255 0.057018433 0.17356086 -0.071698844 0.13111286 0.018805707 0.0737658
-0.099234976 -0.009591309 -0.13217057 0.038565382 0.058404073 0.10716604 0.0071052504 -0.017854143
0.0056177997 -0.05226338 0.10430161 0.026173612 -0.020708933 0.05706597 0.015539088 -0.041762706
0.041585587 0.16709284 0.039306514 -0.026765386 -0.1072389 0.07514402 -0.14392473 -0.04550726
-0.0057064835 -0.041749325 0.12858596 0.0041086553 0.05264486 -0.050786726 0.13574275 0.07313466
-0.03566888 -0.1343607 -0.111610934 -0.07311988 0.006811073 -0.05634519 0.08893348 0.05147558
-0.037852313 0.030140825 -0.024022369 -0.06732092 0.057973877 -0.14989004 0.059113193 0.013666709
-0.13568658 0.09863815 -0.14315791 0.2046704 -0.11514797 0.06480159 0.026184423 -0.13164549
-0.11855189 -0.12307806 -0.0068058004 0.051717553 -0.12930751 -0.038496774 -0.06510699 0.052759856
0.054678537 -0.0257157 -0.023694715 -0.050770897 -0.08366248 -0.07314135 -0.025257545 0.11205017
-0.06192336 -0.021974133 0.032205883 0.020880427 -0.1036413 -0.09225836 0.06979413 -0.04325877
0.031109171 0.17131238 -0.099128224 0.09779666 -0.037008602 0.00011494787 -0.08589613 -0.14026004
0.11297496 0.04785187 -0.11401435 0.015498665 0.020640288 -0.07693113 -0.074836716 0.089141876
0.021288948 0.033568274 0.1379986 0.15801625 -0.0040916065 0.11305649 -0.092643954 0.04986125
0.14858308 0.082304455 0.03109064 -0.04757687 -0.046245664 0.16678478 -0.04702542 -0.13564381
-0.069187604 0.06538298 -0.03329921 0.04924734 0.09641569 0.14259262 0.14784053 -0.061227888
0.061768625 -0.113625556 -0.025565993 0.16184467 0.08351362 0.12229793 -0.014193528 0.09949135
-0.09132995 -0.09168102 -0.16118656 0.07660072 0.15459754 -0.0651994 0.04959704 0.061265964
0.08697936 -0.06397798 -0.013974461 0.04323805 -0.014941717 0.006431279 0.04505847 -0.09411271
-0.047944006 0.055917114 0.16441227 -0.06927089 -0.11317842 0.018882886 -0.019092921 0.01562938
0.012404458 -0.08428989 0.081543654 -0.021749808 -0.040327597 -0.047606952 0.1281953 -0.06202829
-0.06747098 -0.12188081 0.018853752 -0.1208682 -0.058607858 -0.12827991 0.016220056 0.08446838

lstm.bias_ih_l0 f4 [512]
00000000: 6274 5b3d f499 abbd 78eb ca3d 3a2a 9cbd
00000010: 801a 143d bf0b 97bd 42b1 81bd 9263 be3c
00000020: 17d0 6bbd e0cc 8a3d 2d9b c43d 1ae2 ce3c
00000030: 5764 24bd 8258 323d e315 9c3d ef4d 1a3d
00000040: 5b4e 513d 5b44 90bc 41ef 703d cd0b 403d
00000050: 029d 8e3d 5da3 9e3d f4d6 453d 9770 e83b
00000060: 95cc b0bd b0c8 f93c 946a 813d 986c 02bd
00000070: 9529 aa3c 1f10 7d3d ef80 93bd 2895 173b
00000080: bda0 103b c729 203d c56f fdbc d14c 2ebd
00000090: 0801 f3bd b5d6 c53d 613b 9cbd 9919 d23d
000000a0: 8aa6 52bd 569c 40bd e0cc a6bc f511 ac3d
000000b0: fcb3 17bc cfed b73d 7553 b03c 7c7f 963d
000000c0: a591 163b ac21 b73d b6c4 e2bb ca6b 6bbd
000000d0: 2976 343d 38e8 b33d 251e 21bd 1a88 a23d
000000e0: 6c82 00be b0b2 48bc d6c2 93bd 14fc 99bd
000000f0: 7e71 f4bd 7863 5e3d 17f9 87bc f5a3 10bc
00000100: a2db bd3d 787b 823d 51d7 543d 854c 1a3d
00000110: 0a80 ebbc 36c4 5a3d 2e7a 733d 7603 88bd
00000120: fb22 cabd a233 d4bc 9af3 b43c c6a4 64bd
00000130: 28a5 803d dcb1 17bd 8f10 5fbd 4960 053d
00000140: 69a1 86bc 1697 12bd 7125 d5bb 986e 50bd
00000150: dafb 1e3d 1f9c f4bc 335e c43b e1f3 26bd
00000160: b5fe 533c 07c3 66bc c5d2 c9bd 4475 e13d
00000170: 6557 343e f402 e3bc 2326 7d3d c2ee 66bd
00000180: 6e45 053e cf73 93bc b8ce 8d3a 3a3b 323d
00000190: 17ae 873d ecb8 27bc fab6 acbb 0e0f 913c
000001a0: ddb2 5d3d 6890 653d 3bb2 b9bd fad8 05bd
000001b0: 3f7f 463d 45cf 773d 294a 8e3d d9c5 8fbd
000001c0: 7f74 74bc f3b3 873c e07d 93bc cf23 dbbc
000001d0: 6cab aebd 4c1e 37bd c8cb 943d 53b8 503d
000001e0: 0a25 d9bd b7f5 9737 7c04 28bd e7d0 cfbc
000001f0: 26aa c5bd 031c 553d 6f48 e6bc 55f9 07bc
00000200: 32e7 12be 837a efbd 4100 26bd e341 52bc
00000210: 4682 f73a 105d 91bd 1e1f dabd 11dd a9bd
00000220: 4fe0 243b eefd 7ebc 6a0b b7bd 0b31 51bd
00000230: 6d97 0d3d af43 c9bd 62fc 2c3c e52c 6abc
00000240: f5f7 dab9 2e67 cc3b ade4 70bd 38f4 ed3d
00000250: bb7b ffbd e936 1e3e f701 29bd 99df 5dbd
00000260: 1fb2 2b3b 23e6 1cbe 27dc 1d3d 454c 13be
00000270: e277 1fbc 61de d7bc 7f90 c5bd 6823 e33c
00000280: 790f 0a3c a611 283c 95e1 79bd 8a43 b7bd
00000290: 6b6d bdbd 90b7 bd3d f40d ec3c 6fd8 87bc
000002a0: c22d 323d 74f3 12be 3ae8 dfbd e492 87bd
000002b0: 772a 86bc ce4a 02be ebd5 d3bd 861a e9bd
000002c0: 17a6 85bd 8348 3b3d 2d06 43bd e052 143c
000002d0: 1c3f 36be 14b5 eb3c d184 ebbd c59e 33bd
000002e0: 602d 51bd 4637 c0bd 20b1 5dbd 9bd2 40be
000002f0: c143 18bd 7e49 0ebe 0544 7dbc ce55 e63d
00000300: 3190 56bd cdf6 733b 5caf 3dbd 96d0 52bd
00000310: e152 113e 5fc1 ecbd b988 9f3c fee1 fdbd
00000320: 265a c1bd 546d 28bd fa8c 9dbd e7d0 793b
00000330: 96a6 ffbd 63a4 89bd 21b7 de3c e60d 1a3d
00000340: b3f1 9ebd 61b6 e4bc 1dae 373d 4f22 86bd
00000350: ec43 48be 29f8 38bd 2082 adbd 74c1 7e3a
00000360: 2627 10be cada 0abe 5574 eabc d548 4fbd
00000370: 7f92 de3d 2698 b1bc 68a4 26bd 5370 86bd
00000380: eb4b e7bd c789 adbd 6aca ec3c 91d6 44be
00000390: 33c6 7bbc 62ea 1abe 285c 65bd 92e1 15be
000003a0: f0da 96bd 9754 53bd 7d45 72bd 5955 83bc
000003b0: a673 533d bc51 a03d 1e15 c4bd 6342 85bd
000003c0: d45c 4abe 7e01 f03d 5554 663c 600c 1dbe
000003d0: 806d d9bd 9a85 0dbd a55c 1fbe 5225 bebb
000003e0: 4442 f3bb 1344 343c 3e91 34bc 8adc c0bd
000003f0: cf95 e73a 9245 dd3b b765 fbbc 8cd5 a8bd
0.05357779 -0.083789736 0.09908193 -0.076252416 0.036158085 -0.07375287 -0.06332637 0.023240838
-0.057571497 0.06777358 0.0959991 0.025254298 -0.040134754 0.04354144 0.07621362 0.03767198
0.051100116 -0.01761072 0.05882192 0.046886254 0.069635406 0.07746003 0.0483007 0.0070935
-0.08632771 0.030491203 0.06319156 -0.031841844 0.020771781 0.061782952 -0.072023265 0.0023129676
0.0022068464 0.039102342 -0.030937085 -0.042553727 -0.11865431 0.09660093 -0.07628513 0.102587886
-0.051428355 -0.047024094 -0.020361364 0.084018625 -0.00925922 0.08980905 0.02152417 0.073485345
0.0022974994 0.08941969 -0.0069204224 -0.057475843 0.044058 0.087845266 -0.03933539 0.079361156
-0.12549752 -0.012249634 -0.072148964 -0.07518783 -0.119357094 0.05429408 -0.016598267 -0.008828153
0.09270407 0.06371206 0.051963154 0.03767063 -0.028747577 0.053409778 0.05944269 -0.06641285
-0.09869953 -0.025903527 0.022088815 -0.055821203 0.06281501 -0.037034854 -0.05445915 0.032562528
-0.016434388 -0.035788618 -0.0065047075 -0.05088672 0.038814403 -0.0298596 0.0059926747 -0.040759925
0.012939145 -0.014084584 -0.09854654 0.11008695 0.17611463 -0.02771137 0.061803948 -0.05638004
0.13014767 -0.017999558 0.0010819053 0.043513514 0.06625002 -0.01023696 -0.005270836 0.017707374
0.054125655 0.05604592 -0.09067198 -0.032677628 0.048461195 0.060500402 0.06947739 -0.07020158
-0.014920353 0.016565299 -0.018004358 -0.026750473 -0.0852879 -0.044706628 0.07265431 0.050957035
-0.10602768 1.8115023e-05 -0.0410199 -0.025368167 -0.09651594 0.052028667 -0.02811071 -0.0082991915
-0.14346007 -0.11693289 -0.040527586 -0.012833091 0.0018883429 -0.070978284 -0.106504664 -0.08294118
0.0025158112 -0.015563471 -0.08937724 -0.05107216 0.03456824 -0.09827363 0.01055822 -0.01429293
-0.00041764943 0.006237886 -0.058811832 0.11618847 -0.124747716 0.15450634 -0.04126164 -0.054168317
0.0026198698 -0.15322165 0.03854003 -0.14384563 -0.009733172 -0.026351156 -0.09646701 0.027726844
0.0084265405 0.010258114 -0.061006147 -0.08948429 -0.092493854 0.092635274 0.028815247 -0.016582696
0.04350067 -0.14350682 -0.109329656 -0.06619814 -0.01637767 -0.12723848 -0.10343536 -0.11382012
-0.0652582 0.04572345 -0.04761331 0.009052962 -0.17797512 0.028772868 -0.11499942 -0.043852586
-0.051068664 -0.093855426 -0.054123998 -0.1883034 -0.03717399 -0.13895223 -0.015458112 0.11246835
-0.052383605 0.0037225962 -0.046309814 -0.051468454 0.14191772 -0.1156032 0.019474374 -0.1239662
-0.094410226 -0.04111989 -0.07692905 0.00381189 -0.124829456 -0.067208074 0.027186932 0.03761091
-0.07760944 -0.027918996 0.04484378 -0.065495126 -0.1955716 -0.04515854 -0.08472085 0.0009718158
-0.14077434 -0.13560024 -0.028619925 -0.050606567 0.10867786 -0.021678995 -0.040684134 -0.06564393
-0.11293777 -0.084735446 0.028905112 -0.19222476 -0.015367079 -0.15128472 -0.05599609 -0.1463683
-0.07365978 -0.051594343 -0.0591483 -0.016031908 0.051623963 0.078280896 -0.0957434 -0.06506803
-0.19761974 0.117190346 0.014058192 -0.15336752 -0.106165886 -0.03455124 -0.15562685 -0.005802789
-0.007423671 0.011002558 -0.011020957 -0.094170645 0.0017668548 0.006752678 -0.03068815 -0.08243856

lstm.bias_hh_l0 f4 [512]
00000000: 75b4 973c 5381 35bd bf5d 79bc fc2f 98bd
00000010: 5205 82bb 64e2 813c 90d1 bdbd 81ac c53d
00000020: a9b5 4c3d 10fd 61bc ad46 7fbd b236 4d3d
00000030: fb00 db3c 623f 04bb 6e24 babc 6beb 843d
00000040: 0dfe abbc e1ff 59bd af4c 9cbc e00f 323e
00000050: e0be 163c 4b0d 9a3d b7fd 3e3e eab4 46bc
00000060: 4014 37bd 17a0 48bd 9422 2fbd 7082 cebd
00000070: 4326 e33d decf 9bbd d149 96bd d78d 563d
00000080: 8f6a 66bd 2058 90bd bf31 98bc 0197 b63c
00000090: fa8b 883c fd2e 7a3d 6f2a 85bd fbca c93d
000000a0: 8eb2 7bbd 62a7 f3bd 4753 9abd bbba 853d
000000b0: b2df 7f3d f9c6 adbc 37a5 00bd 8eea 443c
000000c0: 6f6f bebc 7fb2 c33c 4685 5c3d 8843 663d
000000d0: c4a6 95bc d2e7 dc3c bfe7 75bd 9700 6b3d
000000e0: 271f fd3b 2f37 9cbc 44e4 3bbd 933a 9e3c
000000f0: 6438 0ebe 5627 86bd d0bc 17bc efb3 e23d
00000100: 786e 73bd 2ade 75bb d3cb 3dbd 490c 513e
00000110: 3eb4 40bc 7420 2fbc 21ab b13d 383a e1bd
00000120: 5d2c 0f3d a690 babd 509b 25bd 54bb 6b3d
00000130: c44b 4fba c1a4 43bc 229b ce3d e279 913c
00000140: 3bb3 cd3a ff16 363c 766c 063e 87b0 cf3c
00000150: 3107 a2bb 0874 b83d 9a94 453b 785a e53c
00000160: a038 b0bc d986 ab3d 2fbb afbd ed84 c33c
00000170: a022 a03d b285 adbd bf33 aa3d 2c88 80bc
00000180: 73ab 873c a378 993c cde7 563d 32fc d4bc
00000190: a070 0a3e a6fd 6ebd 3527 8c3c 4601 1e3c
000001a0: 523f e23d 7394 87bd b70a e4bc 3e60 22bd
000001b0: c43f eb3c a548 7bbc c3e7 df3c 77f5 ac3d
000001c0: b6e0 4a3d 91bc 3b3e 3676 e03c e328 efbd
000001d0: 71b3 943c ae35 9f3d 2c8c 9b3d cdaf 323d
000001e0: 7e62 d6b8 40fe cebd 9f76 663d 792d 8bbc
000001f0: 4727 2b3d 0911 c53d 1449 413c 1156 963d
00000200: 53db d6bd ab85 79bd 638a 083d 55ec 35bd
00000210: e690 a1bd 2c3b 8cbd beea b5bd e6ee 11be
00000220: 6f71 d7bd 65a1 5fbd 096d 123c 1d8b f53c
00000230: 87f7 77bd 161c d9bb ca48 943c 63b9 27bb
00000240: ab42 5b3c f913 e0bd 801c a5bd 2659 1d3e
00000250: 01d1 58bd fcc1 a93d 73d0 27be 27ea cabc
00000260: 9d4b dfbd a3f9 03be dba9 663c 7fc2 31be
00000270: 0d00 573d ed6e 0bbe 7666 0a3c 180a 2e3d
00000280: 202d b4bd ab9c 06be 1332 08be fbb0 493b
00000290: e807 15be b0d1 e03d b7e0 563c d128 dabc
000002a0: d78c c43c 1b50 c9bd f4d8 efbd 7e12 a1bd
000002b0: 447a 09be bb82 1ebc 1dec f3bd 3aef f3bd
000002c0: a108 07be 8fd9 60bc d020 9cbd 5d7d cfbc
000002d0: 620d f1bd 12e8 56bd edae 89bd e9a0 44bd
000002e0: 12e7 c9bd 3c4c 2dbd 2324 b4bd aea6 9dbd
000002f0: f94b cdbc d98f 2bbe 91ad 573d ff25 9b3d
00000300: cbb9 a6bd bbad 07be c2c0 bfbd e85e 26bd
00000310: 0b39 293d df81 7fbc 0784 b8bd 42b4 5ebd
00000320: 7648 85bd 8bd2 26be bfb9 febd 7486 e4bd
00000330: 0bc1 2bbe a738 ecba ca6e 303d 8aa9 16bd
00000340: 9fd9 bfbd 74e3 91bd d967 ddbc 7316 ddbd
00000350: 66a6 2fbe 563f 28be 74dc e43c 6cf7 c53c
00000360: 76a8 90bc b41c 10be e20a ccbd e56a 21bc
00000370: 1bef 293d 948a b9bc e889 a93d 91f8 abbd
00000380: 11b8 f5bd cf81 06bd 48ee 3e3c a310 95bd
00000390: aec8 9fbc a6d5 0cbe 2904 81bd 44f0 d5bb
000003a0: 3d5c 10be c943 17be 19ed c3bd e4ce dfbd
000003b0: 7dc0 0cbc 4eda ca3d c1ac ea3c 6d88 e6bd
000003c0: d557 a2bd 50cd 943d 93d5 2a3d 1bf7 35bc
000003d0: 9286 96bc 0066 2abd a473 d4bd 97ce 173e
000003e0: c457 92bd 679c b33d 6623 64bd 2c6e 9ebd
000003f0: 3891 4b3d 40bc c2bc 7a52 b0bb 4514 49be
0.018518666 -0.044312786 -0.015220105 -0.07431027 -0.0039679194 0.015855022 -0.092684865 0.09652043
0.049977932 -0.013793245 -0.06232326 0.05010099 0.026733866 -0.002017938 -0.02272245 0.06490215
-0.020995164 -0.05322254 -0.019079534 0.17388868 0.009200782 0.07522067 0.18651472 -0.012128094
-0.044697046 -0.0489808 -0.042757586 -0.10083473 0.11091282 -0.07608007 -0.07338298 0.052381363
-0.056253966 -0.070480585 -0.018578408 0.022288801 0.016668309 0.061079968 -0.06502234 0.098531686
-0.06144958 -0.1189716 -0.07535415 0.06529757 0.06246919 -0.021213042 -0.03140756 0.012018813
-0.023246495 0.023888825 0.053838037 0.056216747 -0.018267997 0.02696601 -0.060035463 0.05737361
0.007724661 -0.019069282 -0.045871988 0.01931504 -0.13888699 -0.065504715 -0.009261325 0.11069476
-0.059431523 -0.0037516453 -0.04633696 0.20414843 -0.011761723 -0.01068889 0.086752184 -0.109974325
0.034954417 -0.09109621 -0.04043132 0.057551697 -0.00079077133 -0.011941136 0.10088183 0.017758314
0.0015693674 0.011113881 0.13127312 0.02535273 -0.004944705 0.09006506 0.0030148388 0.02799724
-0.021511376 0.083753295 -0.08580624 0.023867095 0.07819104 -0.08472766 0.08310651 -0.015689932
0.016561246 0.018734282 0.052467156 -0.025999162 0.13519526 -0.058347367 0.01710854 0.009643858
0.11047234 -0.06620111 -0.02783714 -0.039642565 0.02871693 -0.015337144 0.027332192 0.08445256
0.049530707 0.18333651 0.027400117 -0.116777204 0.01815197 0.077739105 0.07595095 0.043624688
-0.00010222661 -0.10107088 0.05626547 -0.016989456 0.041785505 0.0962239 0.011797208 0.073406346
-0.104910515 -0.06091849 0.0333351 -0.044414837 -0.07888965 -0.06847224 -0.08882664 -0.14251289
-0.105196826 -0.054597277 0.008937129 0.029973561 -0.060538795 -0.0066256626 0.018101115 -0.0025592677
0.013382594 -0.109413095 -0.080620766 0.15366039 -0.052933697 0.08288953 -0.16388111 -0.024769856
-0.10903094 -0.12888198 0.014078583 -0.1735935 0.052490283 -0.13616534 0.00844728 0.042490095
-0.087976694 -0.13145702 -0.13300352 0.0030775655 -0.14553797 0.10977495 0.0131151 -0.02663079
0.023992939 -0.09829732 -0.117113024 -0.07864855 -0.13425547 -0.009674723 -0.119102694 -0.11910863
-0.13186885 -0.013723745 -0.07623446 -0.025328333 -0.11770131 -0.052467413 -0.067228176 -0.04800502
-0.09858526 -0.04230903 -0.08795955 -0.07697807 -0.02506064 -0.16754092 0.05265576 0.075756066
-0.08140906 -0.13249867 -0.093629375 -0.040617853 0.041314166 -0.0155949285 -0.09009557 -0.054371126
-0.065079615 -0.16291253 -0.12437772 -0.111584574 -0.16772859 -0.0018022255 0.043074407 -0.03678278
-0.0936768 -0.07123461 -0.027027057 -0.107952975 -0.1715332 -0.1643041 0.027937151 0.024165832
-0.017658453 -0.1407345 -0.09963013 -0.009852146 0.041487794 -0.022649087 0.08278257 -0.0839702
-0.119979985 -0.03283864 0.01165349 -0.07278564 -0.019504871 -0.13753375 -0.062996216 -0.006528886
-0.14097686 -0.14771952 -0.09566707 -0.10928133 -0.008590815 0.099049196 0.028646829 -0.1125649
-0.07926909 0.07265723 0.041707586 -0.011106278 -0.018374715 -0.04160118 -0.10373619 0.14824902
-0.07145646 0.08770066 -0.05569782 -0.07735857 0.04969904 -0.023771405 -0.0053809257 -0.19636638

fc.0.weight f4 [256, 128]
00000000: 61bb 823c 975f cebc a72b a7bb 3653 093c
00000010: cbd1 593d e389 8e3d cce4 1dbd 0036 29bd
00000020: 5969 e7bc 2184 9d3d 16e3 40bd 2d08 903d
00000030: 8045 683d 7aec a53c 1cfa 3dbd cbf0 1a3d
00000040: b848 b2bd 52da 30bc 533a 423d 23b6 9cbd
00000050: a9e0 14bd 7578 88bd b71a 253d 85ef 463d
00000060: 8e92 5bbd bc80 873d 82e2 02bd dbb1 23bc
00000070: 2fce 383d 79ab 63bd ee8e 8abd 578b d93c
00000080: 16bb 35bd 7180 a6bd efa6 453d a2c0 4a3d
00000090: 25e1 3cbc fee7 66bc 27b3 653d b67b 543c
000000a0: 084f 823d 8330 51bd c327 613d a03c 3abc
000000b0: 965a 413d c869 953d 24a4 a2bd cd69 413c
000000c0: 32b1 7fbc d2c4 7b3d 4eb9 893d ad00 6fbd
000000d0: c635 d6bc 8163 93bd 4b97 893d 2c11 2bbc
000000e0: 05aa a83c 2751 69bd 31b0 f5bc 922d 14bd
000000f0: 669c a33c d00f a23c d09a 2d3d edc3 363d
00000100: 9caf ae3d 5039 bdbc 3576 f03c 7823 203b
00000110: 9fd9 223c 2384 393d cdf4 a4bc f999 c43b
00000120: 810d a9bd b01e ad3c 7adc e63c 95f2 90bd
00000130: 2254 3f3d 0a2d 0a3d 1ae0 5f3d d9a4 99bd
00000140: 3c0b 9dbd 35c0 6abd 2aa7 8abb 8811 933d
00000150: 56ba 5bbd b524 95bd 68ab 34bd 16b3 c8bb
00000160: 6ae6 84bd 8c89 43bd e067 eb3b 1fbb a13d
00000170: 7e4f 8e3d a2a3 95bd 8f0b 593c 1ce3 b23b
00000180: 9055 8a3d d184 653d 5069 63bd 9e17 4abd
00000190: 3b41 a13c 7b0a b7bc 3a13 9d3c fac9 a83d
000001a0: cb3d 193d 045a 493d dc4d f93c 9e28 2cbc
000001b0: 679a 4a3d 99bc f03b 92dc 1abd 3134 5abd
000001c0: eeed 433d b8c8 5c3d 0bbc f8bc d41c 53bd
000001d0: 1df4 693d 2be1 ed3b d119 a4bc e32d 84bc
000001e0: 7f87 c6bc ef55 aabc fc49 2fbd ca1b 41bc
000001f0: 4b8f 90bd d4d6 4b3d 6800 1f3d ac01 873c
00000200: de5e 153d 8e8e 873d 53f8 3cbd 20c6 223d
00000210: 22a5 a73d 9af2 883d 898d cf3c 3d48 f4bc
00000220: 3bce 35bb 07c7 2ebd 1117 293d 3dab 9bbd
00000230: 9e98 dabb a655 a4bc bbff debc 6185 8c3d
00000240: 5c1a 7d3d c425 663d 178c 283b e205 9e3d
00000250: ca4f 9bbd a81e f3bb 94e7 373c f0d1 a8bd
00000260: d2da 8c3c 16bc f5bc 7c14 3b3d 41b4 09bd
00000270: 7407 dfbc 4e6b 843c 9054 f3bc 8520 2dbc
00000280: 68d8 b13c 97b1 193d 8300 3abb 2a8c 233d
00000290: 7862 a83d df14 9cbd 2c4c a93d fd50 133c
000002a0: cf1b f8bc d616 4fbd 94f3 823c f6ce a33d
000002b0: 224c 17bd 8077 663c bbb8 a43d 267a 463d
000002c0: a778 1abd 043b 933d d064 8b3d dde0 5fbd
000002d0: 9f1b e83a 8e0e 91bd cb82 283b f1a2 8fbd
000002e0: 061a 08bd 7e6b 83bd 24bd 22bc 93e1 77bd
000002f0: 99ad e2bc 7150 863d ea9a 18bd 13fa ab3d
00000300: 2c99 1b3d 8471 4fbd 795f 783d 51df 2a3d
00000310: 8595 19bd 5cd7 77bd 6d6b 07bd 500f 7d3d
00000320: 26dc a23d 59a6 90bd e08a 883d d96b 9a3d
00000330: 0053 8fbb d299 c13a 3306 503d 772a 0a3b
00000340: e22c 833d efbd c7bd 99c4 5f3d 80ed 0fbd
00000350: 2e63 f8bc 053f 4abc 93dc f63c d6b0 a53c
00000360: f5b4 f43c 9bcb 733d 34e1 4cbd 3ece f23c
00000370: 9194 c3bc a900 113d 264d 80bd 5d51 ea3c
00000380: 3d59 883d 6f41 163d d773 27bd ea7e 653d
00000390: b00e db3a 97a3 0e3d e36e 603d 47ef 613d
000003a0: 49e9 913d 5883 353d 86fe 963c b8cf 953d
000003b0: c316 2ebd a5bd 293d aedb 453d 6720 8c3d
000003c0: a8e3 ac3c 1e80 f3bb c8b7 833d 1a2e 29ba
000003d0: 2448 9a3c 6564 9dbd 6246 733d ca2f 4dbd
000003e0: 3ca9 903d ba98 8abd 774a b2ba e7cd 90ba
000003f0: 80e1 3b3d faa7 e4bb 0112 973c 7d11 09bd
0.01595849 -0.025192065 -0.0051016393 0.008381655 0.05317859 0.069598936 -0.038548276 -0.041311264
-0.028248476 0.07691217 -0.047091566 0.070328094 0.056706905 0.020254362 -0.0463811 0.037827294
-0.08705276 -0.010794239 0.047418904 -0.07651927 -0.036347065 -0.066636 0.04030868 0.048568267
-0.053606562 0.06616351 -0.031954296 -0.0099911345 0.045118507 -0.05558345 -0.06765543 0.0265557
-0.044367872 -0.08129967 0.048254903 0.049500115 -0.011528288 -0.014093397 0.056079056 0.012968948
0.0636273 -0.051071655 0.05496956 -0.011366993 0.04720553 0.07295567 -0.079414636 0.01180501
-0.0156062115 0.061467 0.06724797 -0.058350254 -0.026148688 -0.07196713 0.0671831 -0.010441106
0.020588884 -0.05696216 -0.029991241 -0.03617627 0.019972038 0.01978293 0.04238397 0.044620443
0.085295886 -0.023098618 0.02935324 0.0024435204 0.00993958 0.04529203 -0.020136261 0.0059998003
-0.08254529 0.021132797 0.028181303 -0.07077519 0.046711095 0.03373436 0.05465708 -0.07502145
-0.076681584 -0.05731221 -0.0042313533 0.07181078 -0.0536445 -0.07282392 -0.04410878 -0.0061248643
-0.064892605 -0.047738597 0.0071840137 0.07897019 0.06948756 -0.07306601 0.013247385 0.0054592025
0.06754601 0.056034867 -0.055520356 -0.04933893 0.019684425 -0.022343865 0.019174207 0.08241649
0.037412446 0.04915811 0.030432634 -0.010507731 0.049463656 0.0073467013 -0.03780801 -0.05327243
0.04783433 0.053902358 -0.030363103 -0.051541165 0.05711757 0.007259508 -0.020031841 -0.016135162
-0.024234531 -0.02079293 -0.042795166 -0.011786411 -0.07058581 0.049765423 0.038818747 0.01648029
0.036467426 0.06618987 -0.046135258 0.039739728 0.081857935 0.066868976 0.025336044 -0.029819602
-0.002774133 -0.042670276 0.041281763 -0.076010205 -0.0066710254 -0.020060372 -0.027221551 0.068613775
0.061792716 0.05618836 0.0025718266 0.07715966 -0.07583578 -0.007419426 0.011224646 -0.082431674
0.017194185 -0.029996913 0.045673832 -0.03361917 -0.027225234 0.016164448 -0.029703408 -0.010566835
0.021709636 0.03752288 -0.0028381653 0.039928593 0.082219064 -0.07621168 0.08266482 0.008991477
-0.030286698 -0.050558887 0.015985288 0.07998459 -0.03693784 0.014066577 0.08043047 0.048456334
-0.03771272 0.07188991 0.06806338 -0.054657806 0.0017708427 -0.07082854 0.0025712724 -0.070135005
-0.033227943 -0.06416987 -0.00993279 -0.06051786 -0.027670668 0.06558312 -0.037257113 0.08397307
0.037987873 -0.050645366 0.060637925 0.041716877 -0.03749611 -0.060508117 -0.033061434 0.06178218
0.07952146 -0.07062978 0.06667113 0.075401016 -0.004373908 0.0014770573 0.050787162 0.002108244
0.06405045 -0.09753024 0.05463085 -0.035138607 -0.03032073 -0.012344127 0.030134475 0.020225924
0.029871443 0.059520345 -0.050019458 0.02963936 -0.023874553 0.03540102 -0.06264715 0.02860325
0.06657646 0.036683496 -0.040881958 0.056029238 0.0016712751 0.03482398 0.05479325 0.055159833
0.07124574 0.044314712 0.018431913 0.0731501 -0.042502176 0.041440625 0.048305206 0.06842118
0.021104649 -0.0074310442 0.06431538 -0.0006453708 0.018833227 -0.07685164 0.059393294 -0.050094403
0.07063529 -0.067674115 -0.0013602515 -0.0011047692 0.04586935 -0.006978032 0.018441202 -0.033463944

fc.0.bias f4 [256]
00000000: 643c 143e 7c3f 613d 7b7b 83bd b95d b53c
00000010: 1516 993d 6290 0e3d 3225 26bd 77f8 1f3d
00000020: 98ac a83d 5061 49bd b5ad 2e3d 7c11 903d
00000030: 4261 f63c cdc8 19bd fde6 56bb affb e0bd
00000040: 2f7b 8d3c fe30 31bd 0dc6 97bd 2563 003d
00000050: 52e0 a23d 080f 60bd 583c 1f3c f8b7 fd3d
00000060: c75f 303d 458d afbd 746a b13c 286e 4bbd
00000070: af6a b5bd 30c7 bebd f747 2bbd 21ce bd3c
00000080: 37e5 f6bb 55a0 27bb 0609 ecbd ed09 973d
00000090: e229 a63d b034 3d3d 4ea6 3dbd fa15 233c
000000a0: ead9 7ebd 4581 ccbd e984 db3c 6cc6 6bbd
000000b0: d04b 833d a7ae 92bd c5f9 e6bd 7b38 0c3e
000000c0: 0d02 613d 64a0 cbbd 294f 9ebd 050e 083d
000000d0: 37a8 ecbc 39b6 9f3d 486a 543d a15e ad3d
000000e0: 202d 693d 7eca e8bd e458 f0bc d27e 07bc
000000f0: d209 4abb f1ea 81bd 2ab6 00bc 30b2 f23d
00000100: 9fda 823d 34bd dabd 3840 113e af16 bc3d
00000110: 55a7 bbbc 7a37 19bd 239b 193d 507a 60bc
00000120: 1510 6ebb d942 9ebd b2a4 61bd e28e 5abc
00000130: dd43 e8bc 8a2e 763d 6fcb f33d 6929 003e
00000140: f92d 0c3c 88ee d63d 6b0f b8bc 6b57 a33d
00000150: b286 07bd c519 9dbd 63c9 0d3d db50 b0bd
00000160: d47e 723c 59a1 81bd fcb3 34bd 52ee 5f3c
00000170: d759 43bd 89ad a43b 3119 5c3d 4c13 c13d
00000180: 6cf8 313d 0021 9f3d faba 4fbd 4caa 97bd
00000190: 6689 90bd 1a57 0cbd b690 d53d 4ee3 20bc
000001a0: 96d9 113c 6ab6 a43c 3e68 98bd b25a 30bd
000001b0: 5da2 003e 3a83 35bc 2cec 46bd f088 01bc
000001c0: 5240 833d cd0c 7a3d 246e 03bd 3278 843c
000001d0: 4777 4a3d 0ab0 a2bc 0e48 8bbd 3fff 6f3d
000001e0: 6335 ddbc 1443 48bb 90b3 a4bd 9271 44bd
000001f0: 704b 443a c424 dbbc cb8c af3c 0576 3a3c
00000200: af3c 35bb 858b b2bc 9062 4b39 6afd db3d
00000210: ea60 aa3d 7a92 103e 0376 9a3d fa02 62bd
00000220: a2df d13c 12e9 b13c 95e8 94bd 4857 e73d
00000230: 7db2 df3d 0cf1 9a3c 3266 873b 1277 24bd
00000240: 2899 d93d ab27 463d 9184 a7bd 1834 8d3b
00000250: 86ee 953d de32 a9bb 46b9 9d3c 03f9 013d
00000260: da01 66bd f152 30bd b42f f23d d4e2 6ebd
00000270: 3921 4d3c 78d5 eb3c 4344 a63b 31ac 9dbd
00000280: 526d 3dbc 9883 40bd c214 f1bd afe7 403c
00000290: 90a3 3fbd 40da bb3d a539 bc3d ab6d 65bd
000002a0: f2d2 a53c 0b49 ed3d 6174 143d 3cb9 13bb
000002b0: 71d2 6b3c 5ceb e6bc 7eee 86bd 1fba cf3c
000002c0: e723 62bd 9929 acbd 17de 76bb 2924 54bd
000002d0: 20e1 8dbd d6ea 5ebd 6d83 10bd 453c ab3d
000002e0: 22e9 0dbd 4b53 7d3d a3f3 e93d 6d1f 54bd
000002f0: 9675 043e 4a2a 00bd a4bc 013b 0152 24bd
00000300: 00c6 84bd 1bae d4bd 1d4d ad3d 0f2c f0bc
00000310: 2fd8 fd3c ed6b 403d b8df cdbc 12a5 a7bd
00000320: 744e 8b3d d99c aa3d 8d47 d03c 9d11 c03d
00000330: 52aa 983d fc65 aa3c 6b8d 8ebd 4051 f03c
00000340: fa32 74bd 37b7 57bb cab0 813c c9cc c83d
00000350: a7aa 073c 4960 ab3b b7b6 c2bd 5ae9 803c
00000360: 66ae 5b3d fa19 b33d 91c9 b63d cffc 273d
00000370: 2efc 6e3c 5c61 bf3d 1106 8abc 0de6 c9bd
00000380: 15c3 19bd 5cc8 bd3d 7667 333b 376a 153c
00000390: 4a15 b9bd c680 81bc 5cba 3abd a29d ba3c
000003a0: aece ea3d 355b 47bc 3df8 d93c de26 483d
000003b0: cff5 c63d de97 e8bb 8dda cd3d f977 3abd
000003c0: 1ffa 44bd 402a 81bd d5e8 ec3d 76f2 8ebd
000003d0: 46cc 7abd 4ded afbc c7fc 31bd 2394 823d
000003e0: 0684 e73d 92d6 423d 0d8b 0bbd 3df4 333d
000003f0: fd80 13be 853f c0bd ad0a a3bd 80b3 923d
0.14476162 0.054992184 -0.064200364 0.022139417 0.07474915 0.034805663 -0.040562816 0.039055314
0.08236045 -0.04916507 0.04264613 0.07034585 0.030075673 -0.037545014 -0.0032791488 -0.10985505
0.017270653 -0.043259613 -0.07410822 0.03134455 0.07952942 -0.054701835 0.009718977 0.12388605
0.04306009 -0.08571867 0.021657206 -0.0496656 -0.08858239 -0.09315336 -0.041816678 0.023169579
-0.0075346488 -0.0025577743 -0.115251586 0.0737494 0.08113457 0.046192825 -0.04630118 0.00995397
-0.062219538 -0.09985594 0.026796775 -0.057562277 0.064109445 -0.071622185 -0.112781085 0.1369342
0.054933596 -0.099427015 -0.07729942 0.033216495 -0.028888805 0.07798428 0.05185917 0.08465315
0.0569278 -0.11366747 -0.029339261 -0.008269982 -0.0030828607 -0.0634364 -0.007855931 0.11850393
0.06389355 -0.10680619 0.14184654 0.09184014 -0.022906939 -0.037406422 0.037501466 -0.013701037
-0.0036325504 -0.07727594 -0.055088706 -0.01333973 -0.028352672 0.060102977 0.11904036 0.12515797
0.008555883 0.10494715 -0.02246829 0.07975658 -0.03308744 -0.07670931 0.034615885 -0.08609172
0.014800746 -0.06329603 -0.04411696 0.01366766 -0.0476931 0.00502557 0.053734962 0.09427509
0.043449804 0.07769966 -0.050715424 -0.074055284 -0.07057457 -0.034262754 0.10427992 -0.009819819
0.008901974 0.020106513 -0.074417576 -0.043055244 0.12561937 -0.01107865 -0.048565075 -0.007906184
0.064087525 0.061047364 -0.03208746 0.016170595 0.049430158 -0.019859333 -0.06800853 0.05859303
-0.027002996 -0.003055756 -0.08042061 -0.04795987 0.00074880477 -0.02675093 0.02142944 0.011380677
-0.0027654578 -0.021795044 0.00019396306 0.10741694 0.08319266 0.14118376 0.0754204 -0.05517862
0.025619332 0.021717582 -0.07270924 0.112959445 0.10922716 0.018913768 0.0041320557 -0.040152617
0.10624915 0.048377674 -0.08179582 0.0043091886 0.07320885 -0.0051635345 0.019253384 0.031731617
-0.05615411 -0.04304785 0.11825505 -0.05832179 0.012520128 0.028788313 0.0050740554 -0.076988585
-0.0115617085 -0.047000498 -0.11771537 0.011773988 -0.046786845 0.09172487 0.09190682 -0.05601279
0.020242188 0.115861975 0.0362438 -0.0022540828 0.014393435 -0.0281884 -0.065884575 0.025357304
-0.05521002 -0.084063716 -0.0037668997 -0.051792298 -0.06927705 -0.054423176 -0.035281587 0.08361105
-0.03464616 0.061847012 0.11423423 -0.051787782 0.1293548 -0.03129033 0.0019796276 -0.040117268
-0.06483078 -0.103847705 0.08461974 -0.029317884 0.030986873 0.046977926 -0.025131091 -0.081857815
0.06802073 0.083306976 0.025424743 0.093783595 0.07454361 0.020800583 -0.06960567 0.029335618
-0.059618928 -0.00329156 0.01583137 0.09804685 0.008280433 0.005229984 -0.09507506 0.01573627
0.053633116 0.08745189 0.089251645 0.04101258 0.0145864915 0.09344742 -0.016848596 -0.09858332
-0.03753956 0.09266731 0.00273749 0.009119562 -0.09037264 -0.015808474 -0.045587882 0.022780243
0.11465202 -0.012167742 0.026607627 0.04886519 0.09714853 -0.007098182 0.10051451 -0.04552457
-0.048090097 -0.06306887 0.11567847 -0.069798395 -0.061229967 -0.021475459 -0.043453958 0.06375911
0.11304478 0.04756791 -0.034068156 0.043934096 -0.14404674 -0.093871154 -0.079610206 0.07163143

fc.2.weight f4 [3, 256]
00000000: 51d8 85bd e7d9 81bd f745 4d3d 5e13 983c
00000010: d6f2 dabc 861e 823b 126d 87bd 588f 66bd
00000020: 394b 4abd 02ea 48bb ce4e ffbc f86e 083b
00000030: 88f2 63bb 4c74 d438 0753 f43c 1184 8d3d
00000040: 6227 ecbc edea 9f3d c590 533d d563 e7bc
00000050: fb52 553c 565d f6bc 8d2a 5abd aadc 37bc
00000060: 2ced 0aba f395 60bd 0696 893d d8ad 8a3a
00000070: 1d16 943c 57e9 1dbd 79ea a2bc e220 2cbd
00000080: c6e2 a738 e1ca cabc c758 87bd a353 96bc
00000090: 62f5 183c 6ec7 babc c832 993c 5558 d63c
000000a0: 6ab0 dcbd 435a fe3b 1dee 87bc 78f2 95bc
000000b0: 876b 4cbd b773 dbbc b896 283c 8f9e 6dbd
000000c0: dc1c a8bb 9b97 9c3b 06c3 b5bc 99c1 08bb
000000d0: e2ef 75bd 1750 2d3b 6dcb 9e3c 043f 9bbb
000000e0: 5265 10bd b9a0 c8bd e83a 5abc fe74 47bd
000000f0: 614a fcbc dc99 8e3c 5e65 893a b565 49bc
00000100: 49b7 4bbd f774 e83b 3c16 93bc f076 613b
00000110: b809 47bc 3991 30bd 22cb c03b 9ecd 683d
00000120: 388e 693c 5e02 2f3c d795 bdbb ae63 ee3b
00000130: 0a1d ac3b df6d 0bbd 0a70 06bc cbfd d5bc
00000140: 0158 283b 3e3b 8cbc ef4d b2bd dd6c 4abc
00000150: 21ae d3bb f2b8 28bd 9c4d 86bc bb7f 34b9
00000160: 3a0e 93bd 542b d0bc f4b6 1a3c 2df9 20bd
00000170: a337 8fbb f0fa c7bc 43cd 38bc 2a58 33bd
00000180: 1512 45bc c752 73bd 00f9 dc3c 0412 203d
00000190: 7412 4b3d 710f 7c3c 2970 e6bb 4b6c 7b3d
000001a0: 4af9 f8bd 2e6e 343d f9bc f2bd 436a 793b
000001b0: 0915 15bc 4bdf abbb 48bc a73d aeb4 293d
000001c0: a56d a9bb 7745 c0bc 081f 57bc b2d4 103d
000001d0: 01ec 51bc 2e59 6fb9 3ac8 203d 1da6 86bd
000001e0: 9323 903c 00af 623d 4edb 4cbd 7f3e c03c
000001f0: 6e9b 0abd d308 263d 8f32 b7bd 4181 77bb
00000200: fb61 6abd cb20 d93b bfeb 41bd dfe4 a2bc
00000210: 543b b1bd 2fc5 cabd 6f7e 6d3b fa22 903d
00000220: e2e4 01bc 489c 533b 2232 993d b757 8dbd
00000230: 98b5 d0bb 5557 32bb a0c2 353c f796 8f3d
00000240: a9b7 9abc 8e3d 01bd 99a5 2e3c 6dca 143c
00000250: f8d5 cfbb 6f24 273d 3916 3f3c 5584 57bd
00000260: 9758 f93c 5b94 03bd 03b3 0fbd 413c 8dbd
00000270: 5254 243d 67b7 e0bc ce84 ea3c f1d6 59bd
00000280: fee0 88bd 602a f0bd 1536 c83b 2865 893c
00000290: d7f4 1cbd 2c8d 50bd 8840 adbb 9979 95bb
000002a0: 74bb e7bc 35c6 20bd 30b7 07be bac3 173c
000002b0: 966c 943b 6cc2 8f3b 69ac 693c 55f9 9abd
000002c0: 16e1 093d 9bd3 32bd 3c5c 313d 2b5f d9bc
000002d0: 20ff 83bc b256 363d 16cd 78bd 44aa a7bc
000002e0: 527e 493d 955e 2dba 1bee 16bc aa4b 243d
000002f0: 5916 49bd 8507 083e bec1 c9bd afcc e73c
00000300: dd19 50bd 2049 4ebd 18b6 833a 2d0b fd3b
00000310: 58e2 7bbd d7f6 35bc e2da a93c 1b4a 253a
00000320: dc57 63bd 010d a2bb ccc4 ebbc 8847 13bd
00000330: b83a 21bc 9f93 cb3c 3b8b 2fbd 8c1b 3e3d
00000340: 9707 313c e13f ec3c aee1 03bd 5830 16bd
00000350: 8763 50bd 044f 523b d978 853d 1ceb ce39
00000360: d2d8 bd3c ac87 62bd 1a56 61bb 05bd c9bb
00000370: cb1d 3cbb 150b 81bd a01d 46bc 4fac 1dbe
00000380: 22f7 483d 4830 edbd 34af 343d 81be 383d
00000390: 25ea ab3d 78a4 8e3c 06cc bbbc a74b e53c
000003a0: 30d0 b6bd 407f ee3c acde 2cbd 6c6a afbc
000003b0: 3574 30ba 115a 593d 8779 13bc 207c f03d
000003c0: cd30 943d 7ce0 ba3c 6592 38bd 1f94 523b
000003d0: 0236 1a3c b1be 9cbd 1b1f dcbc 82df 7dbc
000003e0: 3588 02bd 805e 86bd 80c7 fe3c c588 5c39
000003f0: cc28 333c 1561 2d3d a80e b9bc 8854 4dbd
-0.065354 -0.0634039 0.05011555 0.018563922 -0.026727121 0.003970924 -0.066126004 -0.056289047
-0.049388144 -0.0030657058 -0.031165507 0.0020818096 -0.003478201 0.0001013061 0.029824747 0.06909955
-0.028827373 0.078084804 0.051651735 -0.028245846 0.013020272 -0.030073803 -0.053263236 -0.011222044
-0.00052996236 -0.054830503 0.06718068 0.0010580374 0.01807695 -0.03855261 -0.019887196 -0.042023547
8.0054204e-05 -0.024754943 -0.0660873 -0.018350428 0.009335848 -0.022800174 0.018700972 0.026165167
-0.10775836 0.007762225 -0.016593033 -0.018304095 -0.049907234 -0.026788576 0.01028984 -0.05801254
-0.0051303934 0.004778815 -0.022187721 -0.0020867346 -0.060043223 0.0026445442 0.01938411 -0.0047377367
-0.035252877 -0.097962804 -0.013319708 -0.048695557 -0.030797185 0.01740735 0.001048248 -0.012292315
-0.04973534 0.0070940214 -0.017954938 0.0034403168 -0.012148313 -0.043107245 0.0058835903 0.056836717
0.014255099 0.010681717 -0.0057856846 0.0072750663 0.005252485 -0.034040328 -0.008205423 -0.026121994
0.002568722 -0.017118093 -0.08706271 -0.012355057 -0.006459967 -0.041192003 -0.016394429 -0.00017213721
-0.07180448 -0.025411285 0.0094430335 -0.039300133 -0.004370646 -0.024411649 -0.011279407 -0.04378525
-0.012028237 -0.059405115 0.026974201 0.03907968 0.049578145 0.015384541 -0.0070324135 0.061382573
-0.12156923 0.044050388 -0.1185245 0.0038057722 -0.009099253 -0.0052451245 0.08190209 0.041432075
-0.0051705413 -0.023470623 -0.013129957 0.035359092 -0.012812615 -0.00022826038 0.03925345 -0.06574652
0.017595088 0.055342674 -0.050013833 0.0234673 -0.033839636 0.04053576 -0.0894519 -0.003776625
-0.057222348 0.0066262237 -0.047343966 -0.019884525 -0.08653894 -0.09900891 0.003623869 0.07037921
-0.007928105 0.0032289196 0.07480265 -0.06901496 -0.006369304 -0.0027212698 0.0110937655 0.07011216
-0.018886404 -0.031552844 0.010659599 0.009081465 -0.0063426457 0.04080623 0.011663013 -0.052616436
0.03043775 -0.032123905 -0.03508283 -0.06896258 0.040119477 -0.027431203 0.02862778 -0.0531835
-0.06683539 -0.117268324 0.0061099627 0.016771868 -0.038319435 -0.050915882 -0.0052872337 -0.0045616147
-0.028287627 -0.039251525 -0.13253474 0.009262973 0.004529546 0.0043871906 0.014262297 -0.075670876
0.033661924 -0.043658834 0.043300852 -0.026534637 -0.016112864 0.044516273 -0.06074246 -0.020466931
0.049192734 -0.000661352 -0.009212042 0.04011122 -0.049093578 0.13284118 -0.098514065 0.028295843
-0.050805915 -0.050362706 0.0010048775 0.0077222795 -0.061495155 -0.0111062145 0.020734254 0.0006305293
-0.05550371 -0.004945398 -0.028780364 -0.03595689 -0.00984066 0.024850665 -0.04285739 0.04641299
0.010805032 0.028839054 -0.032197647 -0.036667198 -0.050876167 0.0032090554 0.065171905 0.00039466552
0.023174677 -0.055305168 -0.0034383596 -0.006156566 -0.0028704281 -0.06300942 -0.012092024 -0.15397762
0.04906381 -0.115814745 0.0441124 0.045103554 0.08394269 0.01741241 -0.022924434 0.027990175
-0.08926427 0.029113412 -0.042204544 -0.02141305 -0.00067311834 0.05306441 -0.009001142 0.11742425
0.072358705 0.02281212 -0.045061488 0.0032131744 0.0094122905 -0.07653559 -0.026870301 -0.015495183
-0.03186818 -0.06560993 0.031100988 0.00021031786 0.01093502 0.042328913 -0.022589996 -0.050129443

fc.2.bias f4 [3]
00000000: 65fc 84bd af55 83bd c6e0 33bd
-0.06493453 -0.06412827 -0.043915533
