Other models and process/lightning_logs/version_1/checkpoints/epoch=4-step=250.ckpt (torch, 300447 bytes, 33 tensors)

model.param_proj.proj.0.weight f4 [1, 40]
00000000: 36ec af3e 8f88 f03d b18a 24bc c384 cb3d
00000010: fd49 5c3e 19eb ac3d c6fe 8bbe 4d4c b23e
00000020: 77db c63d 743b 55be e2bf ffbd f309 ed3d
00000030: fecc 80bd 8b4c 13be ceda 35be 0d8f 3b3e
00000040: 4eef c43d 2761 01be c120 ae3d 6e0d 453e
00000050: 3bfc 6a3d 4483 193e 4144 473e 91da a3be
00000060: 3611 833d 7d5c 28be 6d94 87be 581c 53be
00000070: 2017 f33c ea27 24be 6899 78be 553a 343e
00000080: d060 333e a6f7 e23d 730e b5bd 0b45 b23d
00000090: c6eb e4bd 7214 0dbe 2b5f 733e e52d ae3d
0.34359902 0.117447965 -0.010042832 0.09937432 0.215126 0.08443279 -0.27342814 0.34823838
0.09709828 -0.20823461 -0.124877706 0.11574163 -0.06289099 -0.14384668 -0.17759249 0.18316288
0.09615956 -0.12634717 0.08502341 0.19243404 0.057369452 0.1499148 0.1945963 -0.3200269
0.06399767 -0.16441531 -0.26480427 -0.20616281 0.029674113 -0.16030851 -0.2427727 0.17600377
0.175174 0.110823914 -0.088406466 0.08704575 -0.11177783 -0.1377733 0.23766772 0.085048474

model.param_proj.proj.1.weight f4 [1, 40]
00000000: 3993 aabc a815 a43d ee31 16be 620e b93d
00000010: eca2 9f3b 3114 e83d 22ec d23d 319d 263d
00000020: 9a50 203e c3f9 0cbe e803 51bd d07f d23d
00000030: 91c9 07be 5ee9 95bd 56f4 4fbd f17d 0a3e
00000040: b4ff 673d 22e8 ab3d d61f 393d 85e6 67bc
00000050: 338b 1f3e 3f63 2e3c 3f0d 2d3e d7d5 c3bd
00000060: 684b 9d3c 490c 643d 3af5 09be bc33 33be
00000070: c231 083d 7d7a 1fbd 692f 65bc 4a8f fe3d
00000080: d305 9f3d 6984 eb3d 67da 11be 8c74 84bc
00000090: 3be5 34be 45d5 8c3d 847d 0a3e bfe2 0d3e
-0.020822154 0.08011943 -0.14667484 0.090359464 0.0048717167 0.11331976 0.10298945 0.040677253
0.15655747 -0.13767152 -0.051029116 0.102782845 -0.13260485 -0.07319902 -0.050770126 0.13524605
0.056640342 0.08393885 0.045196377 -0.014154081 0.15580444 0.010643779 0.16899584 -0.09562271
0.019200996 0.05567578 -0.13472453 -0.17500204 0.033250578 -0.038935173 -0.013988354 0.12429674
0.07764783 0.114998646 -0.1424347 -0.016168855 -0.1766557 0.068766154 0.13524443 0.13856028

model.param_proj.proj.2.weight f4 [1, 40]
00000000: d6a7 19be 654a 0e3d 38fd e2bd 8516 39be
00000010: e40a 99bd 3dde bb3d ccbc 363d 5b26 10be
00000020: 6edb 15be 66ee 3c3e fb0c 773d 6cfd 5bbe
00000030: f31b e6bd fee0 f0bd ecc0 5a3e 53da adbc
00000040: c861 20be a76b 233e 467c 9cbc 6644 e73d
00000050: 00e5 0c3c 8ebf 8a3c e796 4abe 6967 683e
00000060: bc0b 11be 3429 273e 2834 613e 25af aabd
00000070: 0912 2dbe 69a6 523e a0f2 9f3d f951 80bd
00000080: 538b 6dbe 79a3 b03b 6751 53bc 5c2d 00be
00000090: eb76 b1bd 38f2 883d 920b 133d 66b8 313d
-0.1500543 0.034738917 -0.11083454 -0.18074997 -0.0747278 0.09173248 0.044613644 -0.14077131
-0.14634487 0.18450317 0.060315114 -0.21483392 -0.112358 -0.11761664 0.21362656 -0.02122227
-0.156623 0.15959035 -0.019102227 0.11292343 0.00859952 0.016937044 -0.19784127 0.22695698
-0.14164633 0.16324311 0.21992552 -0.083341874 -0.16901411 0.20571293 0.07809949 -0.06265635
-0.23197679 0.005390581 -0.012897826 -0.12517303 -0.0866526 0.066868246 0.035899706 0.043388747

model.rnn.weight_ih_l0 f4 [160, 21]
00000000: e1f9 b3bd 3ae7 42bd bdaf dd3d 14a6 243e
00000010: 8252 293d 1002 c23d 3c3d 143d d592 aabc
00000020: 2ad4 433d 1f12 163e 79a9 50be 2617 b03d
00000030: 4de2 8f3c f15c a53d 5645 c3bc 0c07 583d
00000040: 8d3d f5bd 8b6f 81bd bd4f debd 1975 dd3d
00000050: 2ee0 153e d9b4 ba3d 19e4 1c3e 06c5 bf3c
00000060: 453d 543c 5f5d 19bc f07e a53d 5e96 283e
00000070: 90f1 143b 07d2 0e3e a356 5f3e 19dc 683c
00000080: b79b 413d 65cd 46bd bec5 213e fadd edbc
00000090: 2e3e 053d 3f1b 5ebe cef6 ff3d 2cbe de3d
000000a0: 683b 72be db11 82bd a999 0f3e 2894 3d3e
000000b0: d825 dc3d 02cb 81bd 0236 d13d 2182 a53d
000000c0: ee1a 493e bb3a a93d 5b33 663e 5969 363e
000000d0: 1eec a43d aa2f 2b3e 0679 043e e475 ed3d
000000e0: 99ec 483e 77d4 683e f218 8abe 3d95 113c
000000f0: ba6f 273e acee 62be c213 383e 3232 f93d
00000100: a8be 8b3e 545b e93d fc87 de3c 4692 3a3e
00000110: a379 b53d ce05 8f3d 584a 143e dfee fb3d
00000120: 9f15 213e 334d 183e 9371 023e dba7 43bb
00000130: f2ab 193e 9dc4 50bd a40c f93d 3273 36be
00000140: ad02 b53d 2e18 963d f219 b7be 7a00 88bd
00000150: ff4e 803e 9991 5d3e 6066 823d 8c3d b33d
00000160: 7377 2c3d 0c91 8b3e c187 fb3d ba1a 513e
00000170: 575b f63d d3c6 4e3e 7234 023e bc53 3d3c
00000180: ea29 8cbc 2e2d 873d 0f63 da3d 233f 3dbb
00000190: 961b 14be 7ea3 b93c ccc7 5d3e 5f60 953d
000001a0: 2267 693e ea3c 9d3d b922 323e 06ac 1a3e
000001b0: b197 3d3e 8829 a63d 641e 983b a13c cebc
000001c0: 9961 133e a2fa 663b 0b0c a13d 4c83 533e
000001d0: 7a47 293d 18c8 1d3e eac5 94bc de01 1c3e
000001e0: 2a72 803e 165d a7bd b3e8 c3bd 4fc0 7b3e
000001f0: 3aa9 51bd 626b 353e bef0 a93b bc82 6c3c
00000200: cea0 0e3e e7b8 bfbc 7d0c 1dbe 95bf 583d
00000210: 0591 f0bd 2409 37bd ab6c a83c 6015 e5bd
00000220: 1f01 9a3d e939 ecbc 986c cd3d 39c0 2bbd
00000230: 3146 a5bd 546b 2bbe 1e8c 523c 427a 57bc
00000240: 5698 0bbe 5e62 0dbe 9bfa 12be 886b c9bd
00000250: 76e3 053e 7847 5b3c f94c 073e f2bb f63d
00000260: 4d64 0f3e 8dba 183e 9171 5cbb 9273 0d3d
00000270: ae8d d43d efa2 df3d 75ea 4c3e 24a6 6a3e
00000280: 887c 343c 1f1c a7bd 3b5b 703d 351b 60be
00000290: 1c26 a6bc c08e ec3d 5d4e a53c c293 023e
000002a0: 7ef6 efbc 0679 cc3c 07ab 15bd 7fc6 3e3e
000002b0: 6468 ec3c eb3d b23d c025 dcbc 46b1 113e
000002c0: 4f11 ab3d c187 a93d 555d fa3d c823 783e
000002d0: 332e 533e 76ca 183e 626e 87bd 9a9c 183e
000002e0: 18ab e2bd 0b55 b23b 64a4 293e ef93 94bd
000002f0: 182b 623e 5505 373e 7a2a 533e 4b39 f43c
00000300: 5898 94bd d168 ce3b 42dc 65bc f1ec 3cbd
00000310: c9bc 89bc be48 c63d 957c c53d c2ef c73d
00000320: 2352 5b3e 8ed4 84bd 832e 47bd 6a35 2ebd
00000330: a0e8 8b3d 76f5 f3bd c9c9 8cbc 7e34 373e
00000340: 0808 14be 9bfc e73b ce7c 613d 3cdf b93d
00000350: cf96 d23d b856 27be c98e 07bc 4b18 31be
00000360: 7182 ae3d 64dd 803d 2b35 333c 68e1 c8bd
00000370: 0496 24be 4a99 23bd e786 10be 833f 6bbd
00000380: 31a2 1ebe 4b13 1abe 5446 1bbe cb06 013e
00000390: 9293 1bbe 9693 afbd 7c9f 4bbd d6cd 7fba
000003a0: 9cbc 4a3e ca91 083e 7515 693e f2fa b23d
000003b0: 6a2f 3a3d b961 dd3d b085 653e 9194 373e
000003c0: 2e85 82bc eccb fc3d af21 6c3e b24e ddbb
000003d0: 1bf5 003e 5709 1b3d 8814 5a3e 500d 6cbe
000003e0: 94d0 a3bb b9bb 6c3e fc11 b63c a01f 203e
000003f0: 3461 b239 f519 1fbd f1c4 f8bd 2acf 023e
-0.08787895 -0.047583796 0.10824535 0.16078979 0.04133845 0.0947305 0.03619121 -0.020821968
0.047809757 0.1465535 -0.20377149 0.08598165 0.017563963 0.08074368 -0.023836773 0.052741095
-0.119746305 -0.06320103 -0.108550526 0.1081335 0.14636299 0.09116525 0.15321387 0.023409378
0.012954061 -0.00936064 0.08080852 0.1646361 0.002272699 0.13947307 0.21810393 0.014212632
0.047267642 -0.048535723 0.15798089 -0.02903651 0.032530002 -0.21690081 0.12498246 0.10876116
-0.23655474 -0.06351062 0.1402346 0.18513548 0.107494056 -0.06337549 0.10215379 0.08081461
0.19639179 0.08263155 0.22480528 0.17813624 0.08052848 0.16717401 0.12936792 0.115947515
0.19621505 0.22737299 -0.26972157 0.008885679 0.16351214 -0.22161359 0.17976287 0.12167777
0.27293897 0.113943726 0.027164452 0.18219861 0.08861091 0.06983529 0.14481485 0.123014204
0.15730904 0.14873199 0.12738638 -0.0029854688 0.15006998 -0.050968755 0.12160614 -0.17817381
0.08838401 0.07328831 -0.35761982 -0.06640716 0.2506027 0.21637572 0.06367183 0.087519735
0.042106103 0.272591 0.122817524 0.20420352 0.120291404 0.20193033 0.12715319 0.011555608
-0.01710983 0.06600414 0.10663425 -0.0028876744 -0.14463648 0.022660967 0.21658248 0.07293772
0.22793248 0.07677634 0.17396058 0.15104684 0.18514897 0.0811339 0.0046422947 -0.025175394
0.143927 0.0035244604 0.07863625 0.20655555 0.04132793 0.15408361 -0.018160779 0.15235087
0.250871 -0.081720516 -0.09565868 0.24585079 -0.051186778 0.17716745 0.0051861694 0.014435466
0.1392853 -0.023403598 -0.15336795 0.052917082 -0.1174641 -0.04468645 0.02055963 -0.111857176
0.07519745 -0.028836207 0.10030478 -0.041931365 -0.080700286 -0.16740161 0.012850789 -0.013151707
-0.1363233 -0.13807055 -0.14353411 -0.09834963 0.1307505 0.013383739 0.13212956 0.120475665
0.14003105 0.14914913 -0.0033637027 0.034534045 0.10378586 0.10919749 0.20011313 0.2291494
0.011016019 -0.081596605 0.058680754 -0.21885379 -0.020281844 0.11550665 0.020178968 0.12751678
-0.029292341 0.024960052 -0.036540058 0.18630408 0.028858371 0.08703216 -0.02687347 0.1422778
0.08352911 0.08277846 0.12224833 0.242324 0.20623092 0.14920983 -0.06612851 0.14903489
-0.1106779 0.005442267 0.16566616 -0.072547786 0.22086751 0.17873128 0.20621672 0.029812476
-0.0725562 0.006299116 -0.014029564 -0.046124402 -0.016813653 0.09681843 0.09642903 0.09762527
0.21418051 -0.06485854 -0.04862834 -0.04253141 0.06831479 -0.11912052 -0.017186062 0.17891118
-0.14456189 0.0070796735 0.055050664 0.09075782 0.10282671 -0.16341674 -0.008273789 -0.17294423
0.085209735 0.06292227 0.010937969 -0.09808618 -0.16072851 -0.03994111 -0.14113961 -0.057433616
-0.15491559 -0.15046422 -0.15163547 0.12600248 -0.15193012 -0.08573072 -0.049712643 -0.000975815
0.19798511 0.13336864 0.22762091 0.0873927 0.045455374 0.10809655 0.22414279 0.17927767
-0.015932646 0.123435825 0.23059724 -0.006753766 0.125935 0.037850704 0.21296895 -0.23051953
-0.0049992297 0.23118486 0.022225372 0.15637064 0.00034023228 -0.038843114 -0.121469386 0.1277434

model.rnn.weight_hh_l0 f4 [160, 40]
00000000: 94f0 143e 955c 053e f121 00bc 8a60 93ba
00000010: 21f7 953d 0069 eabd 6d36 16be cb4c cf3d
00000020: eb58 c53b 759d 8a3c 7c49 273d 32b0 4a3d
00000030: e4fd 083e d08d d8bd d2ed d4bd 25e0 87bd
00000040: ce35 833d acd0 f1bb 7e15 0abd 08fe 1e3e
00000050: fa1a 87bd 4fa9 813c 5e73 a23c 84f9 543c
00000060: f81d fdbd 1349 4c3d 6644 bd3d 5724 0bbd
00000070: 6dbf 81bd 1e19 a43d 91e6 003e 048a 29bd
00000080: a709 91bd 89ef 6d3d a194 13be c83e 3e3d
00000090: 9f41 493e c7d9 69bd 9504 93bc df64 213e
000000a0: 8093 0dbd 6135 243e 7ae0 6abd 6ec8 c43d
000000b0: fa29 8c3c 17f3 06be 404c 0c3d d417 133d
000000c0: c621 0d3e 66b0 473c 191d b6bd 8d4e 293d
000000d0: e13d e73d b6bf d13d 3d28 99bc 3983 cb3d
000000e0: 4493 053e e5ae bfbd 3c67 593e a10b 423d
000000f0: b8ab 123c 4d35 61bd 2441 ed3d c00a 8f3d
00000100: 5324 413e 1313 b8bd a2fc 503d 5896 323e
00000110: 1903 0ebe 9fa7 f03d 79a8 0d3d aa05 ef3c
00000120: 811e 0ebe cfea a3bd 6677 083d c290 0e3e
00000130: 46dd a23d c3a2 4bbe 78ac 7e3b 986f 3c3d
00000140: 21c3 2c3e fa24 943d b257 c0bd a5c3 0a3d
00000150: a13a 023e 1808 5e3d 7f5a e23d 786b 00bd
00000160: b9da 17bc 17dd 44bd 5553 c1bc d1d3 b03d
00000170: 3c97 933d cdb3 7b3d c772 a8bc 9abe 7b3d
00000180: 3a4e cb3c c9f9 ae3c 3f75 d83c 3bbd 43bd
00000190: 349b 953d cee4 1d3d 4823 e2bc a185 fcbd
000001a0: fdf3 4c3e c672 0bbd f294 a2bd 1d6e 453e
000001b0: 803b acbd 9a59 3cbe 951d 983c 8608 c7bd
000001c0: f1a1 e13d e232 25bd e2f1 213c d365 92bd
000001d0: c435 0bbd 65f9 46be 29ab 6d3d 603b 383e
000001e0: 45e6 bd3d 360b 1e3e e488 02be 4ebb 9dbd
000001f0: 06f8 99bd 39fd 0a3e 1c93 73bd 5091 1c3d
00000200: 006c 553e 6f8c 27be 88e2 30bb eee5 373e
00000210: 31f1 07bd 659d a73d 2168 82bd 27cc 403c
00000220: 9d04 e23d 5552 39be d234 063e 16a8 bd3d
00000230: 06bc 463d e28a 2cbe 728e 573d 1c72 3dbb
00000240: 61e9 db3d 1658 f2bd ccc5 02be 77f6 ef3c
00000250: 99f0 8e3d 5409 b03d c854 adbd e32b be3d
00000260: e67e 15bc 8ff7 50bd e3e7 dabb 7285 1abe
00000270: 72d4 27be 6cab 3ebd 75f9 da3d c45f 443e
00000280: c707 2a3d a304 0a3e 52ea 983d c5ee 063e
00000290: 43ae 603e ef85 7c3b df6b abbb 5222 3b3e
000002a0: 5454 263e 79a9 b9bc 44cc 9b3d 5584 f23d
000002b0: 91c7 173e b8c9 813d b27f 403d 7a43 26be
000002c0: b7e3 c2bd b4dc 19bd 6679 243e 4c61 4d3e
000002d0: b40f 4d3c 620a c93c 208a acbd fd70 debd
000002e0: b389 bc3c e149 ca3d a77e 583d 91bd de3d
000002f0: 0435 53bd 54ee a6bd bd5b 6a3d 18be c83c
00000300: d85b e73d a645 77be 6c12 a0bb c72e 44bb
00000310: ac77 91bd a3b4 453d f284 4c3d e7ec f73d
00000320: 8ab4 193e 0b49 093e f1d1 f43c 3845 343e
00000330: aca2 ecba c730 5fbd a495 07be b1fa 72bc
00000340: d992 333e b637 db3b d9bc dd3c 646b d33d
00000350: b511 6d3d fe1c 5dbe 5916 973e cde9 043c
00000360: 4f00 383e 1af7 0ebe c4b8 b23d 98a1 3fbd
00000370: dd63 a53c d687 e6bd 3cbc ca3d a4e6 6fbe
00000380: 04e7 00bc 70d9 a7bd 96c5 47be 4ac6 57bb
00000390: ef0f 60be 67e9 3dbe 23d8 3dbc fd81 ac3b
000003a0: 4081 8bbb f2cb d4bd 9d72 dcbd eb64 233d
000003b0: 22c6 c8bb 2748 1bbe 79ac 1cbe 2201 a1bc
000003c0: d3e2 f53d 7d1b d2bc ec31 27be aefe 9cbd
000003d0: f8aa 6f3c a9a8 003e 9424 d53d 6e7a 973d
000003e0: 4395 14be e5bc 72bd 828a 163e 03e7 15bd
000003f0: dc0a dd3d e439 373e b99d 9ebb 0293 1cbe
0.14544898 0.13023598 -0.007820592 -0.0011243981 0.07322527 -0.114458084 -0.146692 0.10122069
0.0060225627 0.016920784 0.040841565 0.04948444 0.13378102 -0.105739236 -0.10396923 -0.06634549
0.06406747 -0.007379612 -0.033711903 0.15526593 -0.06596942 0.015827803 0.019830402 0.012998942
-0.12359232 0.049874377 0.092415616 -0.033970203 -0.0633534 0.08012603 0.12587954 -0.041391388
-0.07081919 0.058089767 -0.14412166 0.04644659 0.19653939 -0.057092454 -0.01794652 0.15761136
-0.034564495 0.16035987 -0.057342984 0.096085414 0.01710986 -0.13178669 0.034252405 0.035911396
0.13782415 0.012188053 -0.08892269 0.041334677 0.11291099 0.10241644 -0.018695945 0.09937138
0.13044459 -0.0935953 0.21230787 0.04737437 0.008952074 -0.054982472 0.1158469 0.06984472
0.18861513 -0.08988013 0.05102218 0.17440164 -0.13868369 0.11750721 0.034584496 0.029177506
-0.13878824 -0.080037706 0.033316992 0.13922408 0.07952361 -0.19886307 0.0038860124 0.04600486
0.16871311 0.07233615 -0.093917266 0.033877987 0.12717678 0.054206938 0.11052417 -0.03135249
-0.009268456 -0.04806241 -0.023599306 0.08634151 0.0720658 0.06145077 -0.020562543 0.06146107
0.024817575 0.021359341 0.026423095 -0.047787886 0.07304993 0.038548283 -0.027604714 -0.12330175
0.20014949 -0.034045003 -0.07938565 0.19280286 -0.08409786 -0.18393555 0.018568793 -0.097184226
0.11017216 -0.04033173 0.0098843295 -0.07148328 -0.03398682 -0.19431074 0.05802456 0.179914
0.09272436 0.15433964 -0.12747532 -0.07701741 -0.0751801 0.1357316 -0.059466466 0.03822452
0.2084198 -0.16362165 -0.0026990492 0.17958805 -0.033189002 0.081843175 -0.06367517 0.011767424
0.11036036 -0.18097813 0.13106087 0.092605755 0.048519157 -0.16849855 0.05262608 -0.0028907126
0.10737873 -0.11833207 -0.12770766 0.029292328 0.06979484 0.08595529 -0.08463436 0.092857145
-0.009124493 -0.05101734 -0.006680475 -0.15089968 -0.16389635 -0.0465502 0.106921114 0.19177157
0.041511323 0.13478331 0.07466568 0.13177021 0.21941476 0.003853198 -0.005231365 0.18274811
0.16243106 -0.022663819 0.0760732 0.118416466 0.14822222 0.06337303 0.04699678 -0.16236678
-0.095160894 -0.037563995 0.16061935 0.20056647 0.012515951 0.024541084 -0.08424783 -0.108613946
0.023014879 0.098773725 0.05285516 0.10876001 -0.05156423 -0.08150926 0.057216395 0.024504706
0.11296815 -0.24147663 -0.0048850086 -0.0029935108 -0.07102904 0.04826797 0.049931474 0.121057324
0.15010276 0.1340677 0.029885264 0.1760453 -0.0018053851 -0.054489877 -0.13240677 -0.014830277
0.17536487 0.006689991 0.027067589 0.103232175 0.057878215 -0.21593091 0.29509237 0.008112383
0.17968868 -0.1396145 0.087266475 -0.046784967 0.02018922 -0.112563774 0.09899184 -0.23427826
-0.007867578 -0.0819577 -0.19508967 -0.0032924586 -0.21881078 -0.18546067 -0.011587176 0.0052645192
-0.004257351 -0.10390462 -0.10764048 0.039891165 -0.006127135 -0.15164243 -0.15300168 -0.01965386
0.12006154 -0.025647873 -0.16327637 -0.07665764 0.0146281645 0.12564339 0.10407367 0.073963985
-0.14510064 -0.059262175 0.14701274 -0.036597263 0.10793087 0.17893177 -0.0048405793 -0.15290454

model.rnn.bias_ih_l0 f4 [160]
00000000: 1ff5 01bc 66b7 463e d43c 9d3b 71b5 563e
00000010: 9cfc 923e a8fa 4e3e 00aa d1bd 9500 1c3e
00000020: 9be6 c63c 0fd4 a5bd 30b9 aebc 7816 343e
00000030: bc57 e63d c037 2b3d 173c f0bc 2f9b 22bd
00000040: d86b bebd 06e6 1b3b 274f 82bd 38b9 1d3e
00000050: 194a 493d ce82 12bc e7e4 9a3d 4f5f 4ebd
00000060: 3be5 ee3d c074 333d e6ac 7d3e 8d70 793e
00000070: d251 f2bb 687c cd3d 82b8 4e3e 2627 a1bb
00000080: 99b0 193e 07d6 a33d e858 eabd c0f6 523e
00000090: 1c8f 483c a77f 3e3e f73d 59bd 78ed 0c3e
000000a0: 69ca 88bd 5c89 123e ef84 323d 3190 553d
000000b0: 35ea 3a3e 5031 8a3d f220 c33d 1243 50bd
000000c0: 804f fd3c 8e79 3cbc ad57 173d cf4b 37bd
000000d0: b337 0c3e 1f80 d33d 7e74 613d 6c03 efbc
000000e0: 9479 bb3d 7c80 b1bc 2a03 de3d 2b1a d83d
000000f0: 7095 d4bd c11c 273d 4e48 ccba d163 963d
00000100: 063a de3d 5965 babd a0e2 9abd 3224 d23d
00000110: e129 9e3d d034 23be 480a 08be 4525 503d
00000120: 9441 6bbd fb38 9ebd 06a1 91bd 89d4 c13d
00000130: 07bd ce3d 6b36 11be 8e7c ce3c 5157 bebd
00000140: 25f3 09be 99a8 613e 5dd1 263d 9e90 413e
00000150: d673 8fbc f35c 1d3d 4832 723d 579c 443e
00000160: 8827 37bb 6fab d6bd 729c 81bd 35b6 bf3c
00000170: aabc 89bd 37bf db3d a4aa 3b37 7672 023e
00000180: 1383 833d 004a 8a3d 1bea f5bd 7f7b 4f3e
00000190: ec30 193c ada7 51be 6f60 183e 294b f3bd
000001a0: e434 6a3d 5194 edbd 97c1 683c c526 4c3e
000001b0: b5c5 c8bd 1265 f8bd 0938 17be efb3 09be
000001c0: e870 06be 2ebc 0ebd a87b 66bd 2b3c b6bd
000001d0: 87a4 1cbe c13e d8bd dde6 0d3e 94fb 1ebd
000001e0: 07e3 0ebe a291 a73d ae9e 0f3c 5c64 963d
000001f0: 680a da3d 27f2 723e 34e7 1abc 54ee e5bb
00000200: 4c99 323d f308 083e 4add 253e 334a 203e
00000210: dde2 1d3e 81f2 c2bd 8775 fa3d dff2 12be
00000220: b50a 9fbd bcff d23c 48fa a4bd 3365 9fbc
00000230: eb3d a0bd 41a4 c0bd fa13 c93d 58ce 5c3d
00000240: 0120 603d d70a fbbd 711b 02bc de4e bf3c
00000250: e471 813d 0157 323e 541c 023e c4ab 8d3d
00000260: 818d 91bd 82ff 6c3e 4549 4fbc b900 663e
00000270: 9af2 34bd f08d 6c3d f1e9 963d 13a9 81bc
-0.007931977 0.19405898 0.004798511 0.20967652 0.2870835 0.20212805 -0.10237503 0.15234597
0.024279883 -0.080970876 -0.021328539 0.17586696 0.11247203 0.041801214 -0.029325528 -0.039698776
-0.09297913 0.0023788228 -0.06362753 0.15402687 0.04914293 -0.008942319 0.07563191 -0.050383862
0.11664816 0.043812513 0.24772987 0.24359341 -0.0073950076 0.10033494 0.20187572 -0.004917997
0.15008773 0.07999807 -0.11442739 0.2060194 0.012241151 0.18603383 -0.05303761 0.13762462
-0.06679232 0.14310211 0.043583807 0.052139465 0.18253405 0.06747687 0.09527768 -0.050845213
0.030921698 -0.01150359 0.03694885 -0.04475003 0.13693123 0.103271715 0.055042736 -0.029176436
0.091540486 -0.021667711 0.10840447 0.10551866 -0.103800654 0.040798906 -0.0015585513 0.07343257
0.10850911 -0.09101362 -0.075627565 0.1026081 0.077228315 -0.15938115 -0.13285172 0.050816793
-0.057435587 -0.07725712 -0.07110791 0.09464366 0.10094648 -0.14180915 0.025205877 -0.09293998
-0.13471659 0.22036971 0.040727008 0.18902823 -0.01751129 0.03841872 0.059129983 0.19200264
-0.0027947146 -0.10481917 -0.06328668 0.023402313 -0.06725438 0.10729831 1.1185799e-05 0.12738976
0.06421485 0.06752396 -0.12007543 0.20261954 0.009350043 -0.2047412 0.14880536 -0.1187957
0.057179347 -0.11600555 0.014206312 0.19936664 -0.098033346 -0.12128653 -0.1476747 -0.13447545
-0.13129008 -0.03484743 -0.05627027 -0.08898195 -0.15297137 -0.10558844 0.13857599 -0.038814142
-0.13953792 0.08182074 0.0087658595 0.07343361 0.10646516 0.23725186 -0.009454537 -0.0070169363
0.043603227 0.13284664 0.16197696 0.15653305 0.15418573 -0.0951891 0.12229448 -0.1435046
-0.07765714 0.02575671 -0.0805555 -0.019457435 -0.0782431 -0.09406329 0.09818263 0.053907722
0.05471802 -0.12257927 -0.007941113 0.023353036 0.06320551 0.17416002 0.12706119 0.06917527
-0.07107068 0.23144343 -0.012651746 0.22461213 -0.044176675 0.05775255 0.073688395 -0.015827691

model.rnn.bias_hh_l0 f4 [160]
00000000: d35f 10bd b09a d0bc 891e a53d 77ac 5f3d
00000010: d09f 813e e55d 903c 5fd8 c1bd b96b 123e
00000020: 5c2e d33d 544e 973d 0433 193e ada3 c93d
00000030: c390 733c fd07 923b 1334 fbbb 6e54 273e
00000040: 4cb0 a6bd 72dc 783e 5a82 1d3e 2140 9f3d
00000050: 2e17 b23d d5dc c23a 28bb 513d 82e1 d93d
00000060: d17b 013d 8752 cb3d b68b 9ebc eea4 333c
00000070: 81e1 29bd 60ac ac3d 69de 123e 241e fa3d
00000080: ab81 a8bd ae89 183e 502f bb3c db9f 6c3e
00000090: e1cb 813d 03aa 433e 6751 563e f005 b7bd
000000a0: 1b1f 73bc 8a6f 16bd bd7a f33d 93c9 92bd
000000b0: 224a 063d 46f1 9a3d 85a4 253d 9b6d aabd
000000c0: 1a34 c23d 83aa 5c3c fb03 af3d e404 2c3d
000000d0: 731b 45bd c6ed ebbd 5ccb 30bc f4ed e63d
000000e0: 8866 88bd c4ec 263e 8e57 fa3d 12ef 423e
000000f0: e0c5 cb3a a987 493d d011 a13d aa54 9fbd
00000100: 5ba4 4a3d b25f 11bd e857 e83d 0684 233d
00000110: 2149 81bd 121f 183d c50d cd3d 0b56 1dbe
00000120: ecd3 fa3d be52 8c3d 061d 0a3e 36cc 50bc
00000130: dd1e 203d 5e76 fe3c c788 cebd 2cb3 ac3c
00000140: 9151 07ba a6a5 c23d 7e57 643e a535 5cbd
00000150: 203e d03d 7753 4e3d c7c3 28be 14b2 99bc
00000160: b0df d03d 9b42 01be 3fe4 0d3e 0845 ecbc
00000170: 9fc9 80bc 681b 14be 386c aebd 5cac ed3d
00000180: 9b0e 253e 227c 843d 9797 b4bd 204b 613e
00000190: cf5f 553e 2c05 52be ed72 573e 7be2 723d
000001a0: 310d 373e 8f0f ac3d 4fec 63be 37aa 99bd
000001b0: 75db 073d b19a 58be d697 1ebd 027b dbbd
000001c0: 9db5 483d 3040 63be 7df8 15be 9ea7 f5bd
000001d0: 1583 0bbe 9137 b1bd 01c5 fcbd 8f8c 0c3e
000001e0: 4ef3 253d b76b e53d d1dc 003d aee3 3b3e
000001f0: f62d a33c 1513 db3d 27ea 263e 9b14 2e3e
00000200: c8a7 acbd 8d90 b0bd 3d72 89bd ff6e 063e
00000210: 5fea 943d c3a8 a3bd 94e5 313d 452f 7c3d
00000220: 9096 09bd 03db 413e aaf0 993d a928 a13d
00000230: 1912 60bd 5754 b3bd 3177 aebd 5755 8e3d
00000240: 2f26 393e 34f8 dfbd cbb1 073e 0495 2c3b
00000250: 69a3 1e3e 7267 ccbd 9a19 9e3d 5900 d03d
00000260: f565 6cbd 1806 173d ce39 633d 5cc2 94bb
00000270: 1033 c13d fab9 233e 1fb2 733c da5f 9dbc
-0.035247635 -0.025464386 0.08062465 0.054607835 0.2531724 0.017622897 -0.09465098 0.14298905
0.10311577 0.07387987 0.14960867 0.09845672 0.014866057 0.0044565187 -0.00766612 0.16340801
-0.08139095 0.24302843 0.15381756 0.077759035 0.086958274 0.0014866838 0.051203877 0.10638715
0.03161222 0.0992785 -0.019353729 0.010964615 -0.041474823 0.084313154 0.14342655 0.1221278
-0.08227857 0.1489627 0.022849709 0.23107855 0.06337715 0.19107823 0.2092949 -0.08936679
-0.014838959 -0.036727466 0.11888645 -0.071673535 0.032785542 0.075655505 0.0404401 -0.08321687
0.09482594 0.013468388 0.08545681 0.04199685 -0.04812188 -0.11519961 -0.010790672 0.11275855
-0.06660181 0.16301256 0.12223731 0.1903651 0.0015546642 0.04920164 0.078647256 -0.0777982
0.049473148 -0.035491653 0.11344892 0.03992083 -0.06312776 0.037139006 0.10012392 -0.15364854
0.12247452 0.06851719 0.13487634 -0.012744 0.039091934 0.031062301 -0.10084682 0.02108153
-0.00051619957 0.09504251 0.22299 -0.053762097 0.101680994 0.050372567 -0.16480933 -0.018761672
0.10198915 -0.12623064 0.138566 -0.02884151 -0.01572114 -0.1446358 -0.08516735 0.116051406
0.16118853 0.06468989 -0.08817976 0.22001314 0.2083733 -0.20509785 0.21039934 0.05929802
0.17876126 0.08401405 -0.22258113 -0.07503169 0.033168275 -0.2115276 -0.03871902 -0.10716821
0.049001325 -0.22192454 -0.14645572 -0.11994861 -0.13624223 -0.086531766 -0.12342263 0.13725494
0.040515237 0.112021856 0.031460587 0.18348572 0.019919377 0.10696999 0.1630026 0.17000048
-0.08430439 -0.08621321 -0.06711242 0.13128279 0.07271265 -0.07991173 0.043431833 0.061568517
-0.033590853 0.18931203 0.07516606 0.078690834 -0.05470476 -0.08756321 -0.08518828 0.06949871
0.18080972 -0.10936013 0.13251416 0.0026333937 0.15492024 -0.09980668 0.07719727 0.10156316
-0.05771442 0.036871046 0.05547505 -0.004539771 0.094335675 0.15988913 0.01487401 -0.019210745

model.rnn.weight_ih_l1 f4 [160, 40]
00000000: 8ea4 a7bb cbd9 6fbd 9f16 0cbe 2549 e7bd
00000010: fec3 ebbd 3f4a 813e e88d 0c3e 6260 1c3e
00000020: 053e dabd 9b8d c13d 42f5 19be 6d76 c53d
00000030: 284c b8bd f80f de3c 4013 1ebe 6dcc 123e
00000040: 684b 6c3c e979 cf3d bfee 4fbc bae7 183e
00000050: f842 e23d 685a 313e de9c 27bd 1430 4ebd
00000060: bce4 0f3e 7c3a 91bc 09cc dd3d 433b 89bd
00000070: 7d28 f53b 3b77 dbbd b00f d23d bc8f 94bd
00000080: 4f90 d9bd e685 5bbd 0b9b a5bd 403c 503c
00000090: 66be 833d 5810 123d 48dc 7b3e 7872 05bd
000000a0: b5d4 a93d 4b4f c7bd 0a65 20be 081c dabd
000000b0: 1ee1 1cbe 004c 4bbe 7ccf 82bd e30a 01be
000000c0: 111b 7dbd c2ec 6f3d 932f b93d d6da cfbd
000000d0: 5a6e e23d 0b63 abbd 4181 313e 7e47 913d
000000e0: 6070 c3bd fabb 3a3d 2d6a 72bc 3fc0 50bd
000000f0: 4312 da3d de4b 3fbc 7512 b83c a313 0abd
00000100: a489 c5bd ba41 663c fdb1 1abc 5de0 02be
00000110: f2cd 9e3d 36d9 41bc 8736 25be 5af1 97bc
00000120: 7991 11be 910a 233d 9bb2 aebd aa9c c03d
00000130: 2404 533d ee51 19be 324b ad3d d33e e83d
00000140: 01b6 88bd e1dc 473d f224 163d 030d 2abd
00000150: 3950 cd3d 0469 9a39 0c71 dfbd e5fe 1c3c
00000160: 0740 343e fd57 69be ace6 1a3e 217e 7f3c
00000170: 8276 023e b406 8ebd 591b 853d 3c31 083e
00000180: 39f1 493e 95c2 ae3d 6bf8 49bd c395 063e
00000190: 1f82 293d f716 adbd f4ee 573e 2615 da3c
000001a0: 4f36 613e 6434 9fbd 3fb5 3bbe 62ab 693c
000001b0: 5423 99bd 8722 4cbe b25f 22be c4d9 633b
000001c0: ca1e 143e 745d 1ebe 0073 f3bd f26e 39be
000001d0: ecaf 90bd dc6c 35be 12c3 2a3d b3e8 1b3e
000001e0: 78f1 bf3d a881 0e3d 462a 713c 1a79 6dbb
000001f0: e8ae 5bbd 0aa6 89bc d99c 6cbc edc6 2d3e
00000200: fde6 5a3c 1fcc 18bd 8087 1b3e 4202 a4bd
00000210: f44d 6ebd 8afe af3c 6638 85bd 9536 12be
00000220: 00c1 613b 81f7 5e3c 7155 aa3c cb7c e43d
00000230: 1dff fb3d abf3 023c b44d bc3c d879 60bd
00000240: 99e1 673e b6d0 983d 1f7f 1dbd 58df 5e3e
00000250: 6f33 3abe e95c debc 21fb 19be 25d8 e6bd
00000260: fdfb 95bc a1a2 c7bb 933d bcbd befe 8bbd
00000270: 25c3 2bbe 895f 3fbd c6be 8e3d e199 da3d
00000280: 3057 2a3e b732 443e 1266 893d d5e1 913d
00000290: 4594 0bbd 6564 a73d c8c4 cfbd 4b5f 3b3e
000002a0: d440 f3bc 9fe2 e3bd 3149 483e ee19 4abd
000002b0: ad0e 863d efc0 b73c 8a6e abbd d8d3 a6bd
000002c0: 4214 f8bb ac1f 2ebe 03b2 273c eede 39bc
000002d0: 6d7b a8bd 00dd 853d b474 e33d 3e75 0d3d
000002e0: d315 043e 5ff7 a2bd 8be7 34be dbfd 5d3e
000002f0: dae9 b6bd 5b0c 2fbe ed66 923c 7dd8 8a3d
00000300: 47d0 c73d 7518 64be 7ad5 91bd 3ac2 98bd
00000310: 9520 b8bd 588a 29be b2c8 973d d644 083e
00000320: e4d1 e13b eb70 8abc 9440 59bd 0d10 dc3d
00000330: be59 b93c 8d2e 16be 7ef5 0d3e d2c3 083e
00000340: 5f27 b1bd 0f30 fabd 16ca a53d 79e2 c63d
00000350: ff09 ee3d 1c01 c03d 96d0 2e3c d15b ac3d
00000360: 8c8f 653d ef72 943d 7564 f7bd 3d76 01bd
00000370: 7819 963d 56c9 c23d 4d8d b73d 1850 18be
00000380: 49ba 8f3d 48dd 0abe 8723 a33d 917f c4bd
00000390: bd24 073d 5442 743d ce99 9b3d 70a8 16be
000003a0: af2e 14be 0b17 2f3e 49af 04be 2cf6 eebd
000003b0: 4ff9 25be 8a60 0e3d 91ba bc3b c566 59bd
000003c0: b3ca 0f3e 4a92 1c3e 8ef3 eb3d 0068 8f3c
000003d0: dc1d 5ebd bc43 8b3e 031b 333c fa0f 323e
000003e0: 360a c7bd d131 04be 6fda 06be b475 533e
000003f0: 0d39 e8bd db55 003b 80cb 8fbe 0215 cdbd
-0.005116052 -0.058557313 -0.13680504 -0.11293248 -0.11511992 0.25251958 0.13726008 0.15271142
-0.106563605 0.09450837 -0.15034965 0.096417286 -0.08998901 0.027107224 -0.15437031 0.14335795
0.014422275 0.101306744 -0.012691199 0.14932147 0.110479295 0.17319643 -0.040921085 -0.05033882
0.14052099 -0.017728083 0.10829932 -0.067007564 0.007481633 -0.10716101 0.102568984 -0.07253978
-0.10623228 -0.053594492 -0.08086213 0.012709677 0.064328 0.035660118 0.2459575 -0.03257987
0.08292524 -0.09731921 -0.15663543 -0.10649878 -0.1532025 -0.1985321 -0.06387231 -0.12601809
-0.06179339 0.0585754 0.09042277 -0.101491615 0.11056204 -0.083685 0.17334463 0.07093714
-0.09542918 0.045589425 -0.014795822 -0.05096459 0.106480144 -0.011675803 0.022469738 -0.033710133
-0.096453935 0.014053756 -0.00944185 -0.127809 0.07754125 -0.011831572 -0.16134082 -0.018547703
-0.1421565 0.039805 -0.0853016 0.09404881 0.05151762 -0.1497266 0.08461608 0.11340108
-0.066753395 0.04879463 0.036656328 -0.041516315 0.10025067 0.00029451412 -0.10910234 0.009582256
0.1760255 -0.22787471 0.15127057 0.015594036 0.1274052 -0.06934872 0.06499357 0.13300031
0.19720925 0.08533207 -0.049309175 0.13143067 0.04138386 -0.08451646 0.21087247 0.026621412
0.21993373 -0.077736646 -0.18330859 0.014262052 -0.074774414 -0.19935046 -0.15856817 0.003476725
0.1446487 -0.15465337 -0.11887169 -0.18108729 -0.070648044 -0.17717308 0.04168994 0.15225486
0.093722284 0.03479162 0.014719551 -0.0036235512 -0.0536336 -0.016802806 -0.014441692 0.16970415
0.013360736 -0.03730404 0.15188408 -0.08008243 -0.05817981 0.021483678 -0.06504898 -0.14278634
0.0034447312 0.013608814 0.020792695 0.11156615 0.12304518 0.007992665 0.02298627 -0.0548037
0.22644652 0.074616835 -0.03845131 0.21764886 -0.18183683 -0.027143912 -0.15037204 -0.11271695
-0.018308634 -0.006092385 -0.09191432 -0.068356976 -0.1677366 -0.04672197 0.06969981 0.10673881
0.16634822 0.19159971 0.067089215 0.07123152 -0.034076948 0.081734456 -0.10144955 0.1829807
-0.029693998 -0.11127209 0.1955917 -0.049341135 0.06545768 0.022430865 -0.08370693 -0.08145875
-0.0075707743 -0.1700427 0.010235312 -0.0113446545 -0.082266666 0.06536293 0.11106244 0.03453564
0.1289895 -0.079573385 -0.17666452 0.2167887 -0.089313224 -0.17094557 0.017871344 0.06779573
0.097565226 -0.22274955 -0.071207955 -0.07458921 -0.089905895 -0.1655668 0.074113265 0.13307509
0.006891476 -0.016899547 -0.053040102 0.10745249 0.0226258 -0.14666195 0.13863179 0.1335595
-0.086500876 -0.12216198 0.080951855 0.09711165 0.11623 0.093752116 0.010669848 0.0841595
0.0560451 0.07248484 -0.120797075 -0.0316069 0.073290765 0.09511058 0.08962498 -0.14874303
0.07017953 -0.13560975 0.07965761 -0.09594644 0.03299402 0.059633568 0.07597695 -0.14712691
-0.14470933 0.17098634 -0.12957491 -0.11668047 -0.16208385 0.034760036 0.005759545 -0.053076524
0.14042167 0.1529018 0.11521064 0.017505646 -0.054227695 0.27200115 0.010931733 0.17388907
-0.097187445 -0.12909628 -0.13169263 0.20650369 -0.113390066 0.0019582424 -0.28084946 -0.100137725

model.rnn.weight_hh_l1 f4 [160, 40]
00000000: b848 0a3e 3aa5 743c 7973 f4bd e85b ed3d
00000010: 82d9 1b3b ffe9 44bd 4508 0e3e 23fb ec3d
00000020: f340 e63d c5d8 f3ba 679b cfbd b250 a33d
00000030: bfbd a9bd 4cab 813c a893 913d 31b5 0dbe
00000040: e12d 5dbd 5f57 063e c34e 803c ecdb 863c
00000050: 7bee 003e a82d b1bd 6c14 f5bd e62d 893d
00000060: 2198 3fbc 6114 d5bd 3c15 e13c b014 a0bc
00000070: 2e89 bc3d 8ed1 ef3d ec2c e7bd 949e 0bbe
00000080: 42b6 3cbd 4afb 15be 4dd6 f5bd 65c5 a8bd
00000090: 68c2 f1bd 0d06 19be 0543 3abb 6f94 bf3d
000000a0: a14a 28bd 1abe 26be 1621 363e f546 20bd
000000b0: 1031 a3bc 2dad 4c3d a3d6 1a3d 18de 01be
000000c0: caab 6a3d e0ab d4bd 781f f83d b0fe b03d
000000d0: f8f4 62bd 9c09 09be 2af1 293e 2586 0b3e
000000e0: 5fa5 c03d bd95 173d 6a3f bd3d 54a6 ba3a
000000f0: e16b ec3d 39e5 91bd 86f4 e23c d843 6a3d
00000100: a5fa a8bd b450 4d3d 2282 65bd 7659 a9bd
00000110: 9d00 083e 84ca ef3d 481e 5e3d 390f a63d
00000120: a3ff b9bc f5dc 8b3d d756 783d 66fa 38bd
00000130: e8b1 b23c d501 6c3b ba35 fb3d 5b0c d7bd
00000140: 16a2 c0bd b7f9 1abc 99c5 d9bc d981 94bb
00000150: 8c2a 2ebd aeba bfbd 8a8b 86bb 0dd4 a8bd
00000160: 8eac 4f3d fd75 b0bd a5e3 31bc 8448 b4bc
00000170: bfcc e73d 8158 fa3c e12c b63d aa34 8e3d
00000180: 602f d73c 79e7 be3d 3021 b13d 40b6 1cbe
00000190: a49e b0bc 2898 c33c f313 243e 314c b43d
000001a0: 46d9 25ba 1738 893d ba48 cb3d 9f17 37bd
000001b0: 0ab6 983d f484 653d 3519 0fbd ff99 d83d
000001c0: 58d6 bc3b 5e1e 0a3e f133 04be f7a6 e2bd
000001d0: 5d18 26be 17dc ad3d b012 353e e557 84bd
000001e0: 8014 163d 8511 f03c 4c51 07be 751d 6b3d
000001f0: dadf ddbd 6461 2d3e 14b0 033e 2417 2bbd
00000200: 5dee 523d 5899 5cbd 9ceb 61bd 7241 f73d
00000210: 310d 113d efe8 c2bd 6fd2 013d cc08 383e
00000220: 8b28 8bbd a49a 663d 8068 47bd 9ac4 a13d
00000230: 9183 cfbd e072 1b3e 637a 2e3e c91d ca3c
00000240: 8e96 b7bd 9da9 eb3d 36df 2fbe 5612 d3bd
00000250: 87e1 8bbd c6ff 1a3d 79b9 8bbd 2718 143e
00000260: cd6b abbd 47c7 dbbd c62f 99bd ea22 f8bd
00000270: b8d9 d3bd 1427 ca3d d457 86bd eb4e c7bb
00000280: dc8a 413c 87b3 7bbc 04c2 1cbe b51a 603e
00000290: e29b a43d 0d4a 9b3c f228 7dbb 61c4 3a3d
000002a0: 3379 903b 67c5 19be 61c4 e83d 03bd 95bb
000002b0: 41ba 1cbe c4b0 27bd e189 803d a06f c9bc
000002c0: a93b 233d 95dd 06be 1416 0e3d cd30 81bd
000002d0: a310 353e 77a5 4d3e ffd1 2e3e 1c11 16be
000002e0: 2411 343e ab74 df3d 189a 31be 36a3 4ebe
000002f0: b8f6 4d3e 0bcf d5bd aca6 63be 65b5 74bd
00000300: a5ec ba3d ae24 9a3b ca7a fb3c a5cb 323e
00000310: b776 aa3c 9233 553c 8807 a93c c378 d33c
00000320: a27d 49bb 6ff7 11be d682 4c3d 587c ecbc
00000330: 043a 2dbe cf36 043e 5f80 5cbd 59f0 9abd
00000340: edb4 eebb 5746 00be e1c7 003d 21c3 953b
00000350: f435 88bd ccfc 5f3d 70ec 84bd a682 ebbd
00000360: 3f37 45bd bb0a 00be 86bf 143d c9e6 4fbd
00000370: e41e 91bc f600 c4bc 2b9f 39be b316 413e
00000380: 068a 00be b1ee 0f3d 1724 013e f1f5 76bc
00000390: a3bf 11be 691d e5bd 6fbe c53d 0380 1abe
000003a0: 7716 84bc 29a8 8bbc 4c2f 21bd 2624 47be
000003b0: f0a4 f9bd 82e3 19be 4fae c73c 18a4 41bd
000003c0: 8a7d 20be 5277 a13d bec6 1a3e 7729 803d
000003d0: c336 c43d 7643 093d 5aab 22bd 6cc4 b93d
000003e0: e44a a8bd a827 e73d b971 04be 9029 e83d
000003f0: 6e92 32bc 3f00 0a3e f6e6 a1bd e0b2 2cbe
0.13504303 0.014931971 -0.11936087 0.11589795 0.0023780768 -0.04807472 0.13870342 0.11571338
0.11242857 -0.0018604031 -0.101370625 0.07974376 -0.08288144 0.015828751 0.07108241 -0.1383865
-0.05399883 0.13119267 0.015662557 0.016462289 0.12590973 -0.08651286 -0.11966786 0.066982076
-0.011693985 -0.104042776 0.027475946 -0.019541115 0.092058524 0.11709891 -0.11287865 -0.13634712
-0.046072252 -0.1464664 -0.12003765 -0.08240775 -0.11804658 -0.14943714 -0.0028421294 0.09354483
-0.041086797 -0.16283455 0.17786059 -0.03913017 -0.019920856 0.04996984 0.03780235 -0.12682378
0.057292737 -0.10384345 0.12115377 0.08642328 -0.0554094 -0.13382572 0.16595903 0.13625391
0.09406542 0.037008036 0.09240611 0.0014240243 0.11544014 -0.07123799 0.027704488 0.057193607
-0.08250932 0.050125793 -0.056032307 -0.082690164 0.13281484 0.11708549 0.054228097 0.08108372
-0.022704905 0.068292536 0.060629692 -0.045160674 0.021813348 0.0036011834 0.12266107 -0.105004035
-0.094059154 -0.009458951 -0.02658348 -0.0045320806 -0.042521045 -0.09361778 -0.00410599 -0.082435705
0.05070167 -0.086162545 -0.010857497 -0.022007234 0.11318349 0.03055978 0.08895279 0.069436386
0.026267707 0.09321494 0.08648908 -0.15303898 -0.02156002 0.023876265 0.16023235 0.08803595
-0.0006326627 0.067001514 0.09925981 -0.04470026 0.07456596 0.056034997 -0.03493615 0.105762474
0.0057628565 0.13488147 -0.12910439 -0.11067002 -0.16220231 0.084892444 0.1768291 -0.06462077
0.036640644 0.029305229 -0.13214606 0.05740114 -0.10833712 0.16931683 0.12860137 -0.041770115
0.051496852 -0.053857177 -0.055156335 0.120730296 0.03541297 -0.09517085 0.031694826 0.17972106
-0.06794842 0.05629982 -0.048683643 0.07898827 -0.10132516 0.1518054 0.17038874 0.024672406
-0.08964263 0.115069605 -0.17174992 -0.10306232 -0.06830125 0.03784158 -0.068224855 0.14462338
-0.08370171 -0.107313685 -0.07479815 -0.12116034 -0.10344261 0.09870735 -0.06559721 -0.006082406
0.011812892 -0.015362627 -0.15308386 0.21885188 0.08037545 0.018956209 -0.0038629142 0.045597438
0.0044089793 -0.1501671 0.11365581 -0.004569651 -0.15305425 -0.04094006 0.06276298 -0.02458936
0.03985182 -0.13170464 0.034689024 -0.06308136 0.17682128 0.20082651 0.17072295 -0.14654964
0.17584664 0.109109245 -0.17343938 -0.20179448 0.20113647 -0.10439881 -0.22231549 -0.059743304
0.091271676 0.0047040796 0.030698199 0.17460497 0.02080856 0.013012784 0.020633474 0.02581442
-0.003074505 -0.14254545 0.049929462 -0.028867885 -0.16916662 0.12911533 -0.05383336 -0.07565374
-0.0072847516 -0.12526833 0.03144062 0.0045703803 -0.06650916 0.054684445 -0.064904094 -0.114995286
-0.04814839 -0.12504093 0.036315463 -0.050757203 -0.017714925 -0.02392624 -0.18127124 0.18856315
-0.12552652 0.035139743 0.12611423 -0.015073285 -0.1423326 -0.1118725 0.09655463 -0.15087895
-0.016123993 -0.017047958 -0.039351746 -0.19447383 -0.121896625 -0.15028194 0.024375109 -0.047275633
-0.1567289 0.07884087 0.15114877 0.06257909 0.095807575 0.0335116 -0.039714195 0.090706676
-0.08217409 0.11286861 -0.12934007 0.113360524 -0.010899169 0.13476656 -0.079053804 -0.1686511

model.rnn.bias_ih_l1 f4 [160]
00000000: d079 e53c 4b73 f8bd ade0 b33d 0cea 433e
00000010: 9c4b 6a3e 7534 02bd fab1 bfbc d196 3c3e
00000020: 4cd9 223e 22bb fb3d 8c03 da3d 6e31 3bbd
00000030: d027 023e 61ea 923d 7d6a 21bd 1807 a93c
00000040: 1ef5 dd3b 70e7 90bc ae56 8ebd d48c fdbd
00000050: 7016 063e d009 003e ff31 693c 9574 f23c
00000060: 5f6f 253e 765e 6a3d b588 a73d f3d8 6a3c
00000070: 428e debd 1c38 673e d4c1 ed3c 3839 233e
00000080: a6fa 8b3c 08d3 bd3d a3b5 a93d f015 163e
00000090: a18c 333e 0e90 f5bc ebc2 66bd a897 f33d
000000a0: b8af 013c d89d 013e f8fa 22be 0d4d c03c
000000b0: 7d02 8fbd 8bcd 1bbe 2c7a 0dbe c873 91bd
000000c0: 1915 b3bd 7ab8 293d 5f3f b53d bb58 bc3d
000000d0: 4357 033d 74f6 6abc 1a24 ca3d 0a71 91bd
000000e0: 259b e33d ea57 de3d cdec cb3c 99a0 dabd
000000f0: fc46 04bd bda0 c63d c5c1 e4bc 5e79 39bd
00000100: 391f 88bd 80f4 aa3a e2be d5bd 88c4 983c
00000110: e340 3e3c 7e06 60bd 0568 f03d d7fe 03be
00000120: 5d64 b8bd 5288 82bd 32bc 48bc e286 a2bd
00000130: cd5d 2d3e fb14 10bd d626 1bbd c54c 923d
00000140: f298 e03d 66a3 e13c e650 32be 9e8a 293e
00000150: 014d 743d e14e 963d 75f7 c33d 40bf 3c3e
00000160: fac3 e23d bdbb c7bd 2536 a93d 24e7 94bd
00000170: 5ad2 9f3d a565 703c 9b48 e2bd a2e2 a6bc
00000180: 56bd 433e 8055 b1bb f8fe 593b 2a2d 5a3d
00000190: d691 68bd 112e a93d 4aa6 82bc 6952 b93c
000001a0: 5ec1 6cbd ad3b 1b3d 496b 8e3d c018 a9bd
000001b0: deb8 fe3d 0b9d 953d 2ee6 1dbe 65f5 153e
000001c0: cc92 d63d af21 80bd 700b 90bd a9cc 96bd
000001d0: b915 d1bd bbcf e63b 99f4 303e 5946 223e
000001e0: 363b 0cbe ff78 df3c 70a6 383e f218 74bd
000001f0: 9541 9f3d 1aab 553d 0f94 363e ecfc 7dbc
00000200: e2c2 253c 767a 293c 8b03 553d 5b3e 183d
00000210: 9e16 d5bd 9409 d93d e33f d13d d586 8abd
00000220: 1b50 103e bed6 7b3d 199d 5b3c 4dc1 e3bd
00000230: d9a7 81bd 6fc0 103d a7bb a43c e95a 033e
00000240: 4bfc 313e b05c 053e 6a12 5b3a 00fd ce3d
00000250: 09c7 203e 5e92 23bd 7a6b d53d 7c3c c4bd
00000260: 6a83 d93d 07e5 3b3a adb7 3a3e e490 8c3d
00000270: ca49 8b3d 073c 21be 2ae4 b23c 3f04 81bd
0.028012186 -0.121313654 0.08783088 0.1913225 0.22880405 -0.03178831 -0.023400296 0.18416907
0.15903205 0.12291552 0.10645208 -0.045701437 0.127105 0.071736105 -0.039408196 0.020633265
0.006773605 -0.017688483 -0.069501266 -0.123803765 0.13094497 0.12503743 0.014233111 0.029596606
0.16155766 0.05721899 0.08180372 0.014333951 -0.10866977 0.22579998 0.029023089 0.15939796
0.017087292 0.09268767 0.082865976 0.14656806 0.17534114 -0.029975917 -0.056338232 0.118941605
0.00791543 0.12657869 -0.1591605 0.02347424 -0.069828965 -0.15215127 -0.13816136 -0.07102162
-0.087442584 0.041435696 0.08849978 0.091966115 0.03206564 -0.014340986 0.09870167 -0.071016386
0.11113576 0.10856612 0.024893189 -0.10675163 -0.03229426 0.09698627 -0.027924428 -0.04528176
-0.0664658 0.0013042837 -0.10436799 0.0186484 0.01161215 -0.05469369 0.1173859 -0.12890182
-0.09003518 -0.06373657 -0.0122519005 -0.07935883 0.16930313 -0.03517626 -0.037878834 0.07143549
0.10966672 0.027543735 -0.17413673 0.16556785 0.05964375 0.07339264 0.09568683 0.18432331
0.11072536 -0.09752605 0.082622804 -0.07270649 0.07803793 0.014672671 -0.11049005 -0.020371739
0.19115195 -0.0054118037 0.0033263545 0.053265728 -0.056779705 0.082607396 -0.015948433 0.022622304
-0.057801597 0.037898708 0.06954057 -0.08256674 0.12437604 0.07305344 -0.15419838 0.14644392
0.10477218 -0.06256425 -0.070334315 -0.073632546 -0.102092214 0.0070438064 0.17280807 0.15847148
-0.13694462 0.027279375 0.18032241 -0.059594102 0.07776181 0.05216513 0.17829917 -0.015502196
0.010117264 0.010344138 0.052005332 0.03716884 -0.104047045 0.1059753 0.102172635 -0.067639984
0.14093058 0.06148409 0.013404154 -0.111208536 -0.063308425 0.03533977 0.02010901 0.12827648
0.17381398 0.13023639 0.0008356931 0.1010685 0.15700926 -0.03993451 0.1042089 -0.09581849
0.10620768 0.00071676116 0.18234129 0.06863573 0.068011835 -0.15745555 0.021837313 -0.06299638

model.rnn.bias_hh_l1 f4 [160]
00000000: ca35 d43d 7838 1c3e 13b8 303e 83c4 1c3e
00000010: 4e6b 2cbd 1344 d43d ff23 1c3e 44c2 fcbc
00000020: c439 363e 5ce0 fe3d 1f16 ad3d c110 e53a
00000030: ca8b 20bd 0a09 0ebe 2cf7 4c3d b528 443d
00000040: a78b 3a3e f444 92bd cf5a 86bd f057 8abd
00000050: 30e8 5d3d 5899 d03d 03ef a03d aa85 b53d
00000060: 9b12 8f3c 8abf 90bd 9b08 403e 9dca cbbd
00000070: eb05 0abe 1883 113e 82c6 193e 4f88 f23d
00000080: e4ed 233c 27b7 4bbd 1341 3e3e adb3 123e
00000090: 8fe3 933d 33af b9bd 1f42 e7bd ffa8 ddbc
000000a0: abeb 5c3d cd2f 0bbd 6e63 803c c8fd 123e
000000b0: 1b33 a93d 41a8 743d 7aff ba3d 147b 9e3c
000000c0: 9113 993d 10d5 02bc 2435 44bc 49c9 4abd
000000d0: 33de 073d 4913 f4bd 1a61 a83d 3c70 15be
000000e0: b912 d23d b604 003e bec7 86bd e00f c2bd
000000f0: 0bec 1dbd 6caf f2bd d10b 053e bc31 d43d
00000100: da4e ef3d 0da8 1abe 0a68 fcbd 8a1d ef3d
00000110: df68 9fbc a171 dc3d 64fd bc3d 098c 90bd
00000120: 9aaf e03b 7e9f 0b3e e62d 043e f7b3 94ba
00000130: 43bb c1bd ba4c a8bd fdae 16be 9413 fcbc
00000140: 56ca b03c b616 e13d 6c8f fb3b cddb 463d
00000150: a61f 923c 79e4 043d f6e6 263d 4f5d b3bc
00000160: 0916 e83c a8a6 37be c14e 1dbe a72f 053e
00000170: 396d 493d fa16 053d 8d8b 32bc 2b72 e73d
00000180: 6f6d d83d 2c7f f73c 0c09 093e ded9 8abd
00000190: ac6b b53d d08c 133e 96f7 d43c 9b59 77bd
000001a0: 5f8d d93d 3e06 783d fb6c 7cbb 0a5f ccbd
000001b0: 6547 8f3d e1ac 0bbe 14b6 16be e9ad 1d3e
000001c0: ff41 c03d bd97 4d3e 52a2 19be 5c4a 22bd
000001d0: 2f6a 15be ef95 903d 1670 6f3b 3cbe 023e
000001e0: 393a 06be 94cd f23d afa3 ab3d 34b5 74bd
000001f0: ef2a ed3d dc51 1cbe 2028 993d 5c5c 0d3e
00000200: 8bac 0f3e 6a3c ddba c3d4 d93d ef6e 743d
00000210: fa82 d23d 004d 5b3d a7cb ff3d feb7 b2bd
00000220: 20bc 113e f982 973d 8bd0 aa3d a66b c2bd
00000230: 7473 36bd a082 de3d 8d06 a23c 9d9b f93c
00000240: 0b4d 3b3e fd2f 1e3e f3d2 ba3d 8815 cd3d
00000250: 74b1 92bd c848 e03d f89b 143e efff 59bb
00000260: 201e 623d 1dc2 05bc 1ad9 023e 8c4d 353e
00000270: a33c 03be 64a9 bb3d 0b6b 813d 49c5 03be
0.10361822 0.15255916 0.17257719 0.15309338 -0.04209452 0.103645466 0.15248106 -0.030854352
0.17795473 0.12445137 0.08451485 0.0017476307 -0.039195813 -0.13870636 0.05004041 0.047890384
0.18217336 -0.07142058 -0.06560289 -0.06755054 0.05417651 0.10185498 0.07858088 0.08863385
0.017464926 -0.07067783 0.18753283 -0.09950755 -0.1347882 0.14210165 0.15017131 0.11842405
0.010005448 -0.049735215 0.18579511 0.14326353 0.07221138 -0.0906662 -0.112919085 -0.027058123
0.053935688 -0.033981133 0.015672412 0.14354622 0.08261701 0.059730772 0.091307595 0.019345798
0.07474435 -0.007985368 -0.01197556 -0.049508367 0.03317089 -0.11917741 0.08221646 -0.14593595
0.10257477 0.12501797 -0.065810665 -0.09475684 -0.038555186 -0.11849865 0.12992789 0.103610486
0.116849616 -0.15103169 -0.123245314 0.11675556 -0.019459186 0.107638605 0.09228018 -0.070579596
0.006856871 0.1363506 0.12908134 -0.0011345138 -0.094595455 -0.082177594 -0.1471519 -0.030771054
0.021580856 0.1099066 0.0076770093 0.048549462 0.017837357 0.03244445 0.040747605 -0.021895079
0.02833082 -0.17934668 -0.15362073 0.13006459 0.04917643 0.032492615 -0.010897529 0.11301073
0.10567748 0.030212007 0.13382357 -0.06779836 0.088584274 0.14409184 0.025996964 -0.06038819
0.106226675 0.060552828 -0.0038517106 -0.09979065 0.06996039 -0.13640167 -0.14717895 0.15398373
0.09387588 0.20077415 -0.15003327 -0.039621696 -0.14591287 0.070598476 0.0036535314 0.12767881
-0.13108148 0.11855617 0.083808295 -0.05974312 0.115804546 -0.15265602 0.07478356 0.13804764
0.14030664 -0.0016878967 0.10636284 0.059676107 0.10278888 0.05354023 0.124900155 -0.087265
0.1423192 0.07398028 0.08340558 -0.094931886 -0.0445437 0.108647585 0.019778514 0.03046971
0.18291108 0.15447994 0.091222666 0.100138724 -0.07162753 0.10951382 0.14512622 -0.003326412
0.05520451 -0.008163956 0.1277813 0.17705363 -0.128161 0.09163168 0.06319245 -0.12868227

exp_avg f4 [1, 40]
00000000: 4650 7cba 2a01 04ba 2ed3 1ab9 1f5c 16bb
00000010: 7f3b 36bb 2f77 0eb9 04b6 3f3a 3528 18bb
00000020: e524 09bb ea4f 253b 3567 233b f06d 27bb
00000030: 17de 4cb8 52c3 82b9 1c06 393b fd5c 3dba
00000040: 09db 28bb 2ed8 993a 25af a2ba 6495 5f38
00000050: 0aeb c4b9 af8a 81ba b6c7 07bb 589a 223b
00000060: e859 22bb 775e 9e3a 96c0 1c3b dfe6 d339
00000070: e377 c7ba 2384 233b 0b21 1f3b 982e f6ba
00000080: d2e5 3cbb 6776 9fba 8856 1039 d5ef 1cbb
00000090: 64e7 783a 3372 4a37 4b7b d1b9 2d9d 2eba
-0.0009624999 -0.0005035574 -0.00014765255 -0.0022943092 -0.0027806459 -0.00013586575 0.0007313194 -0.0023217325
-0.0020926532 0.0025224634 0.0024933342 -0.0025547706 -4.8844227e-05 -0.00024941057 0.0028232401 -0.0007223634
-0.002576532 0.00117374 -0.0012411816 5.3306474e-05 -0.0003755915 -0.000988325 -0.0020718402 0.0024811234
-0.0024772827 0.0012082596 0.00239185 0.00040417069 -0.0015218224 0.0024950586 0.002428117 -0.0018782197
-0.0028823507 -0.0012166024 0.00013765146 -0.0023946662 0.0009494929 1.2066727e-05 -0.00039955447 -0.0006660994

exp_avg_sq f4 [1, 40]
00000000: f386 2c35 fcca 2e36 2173 1136 3e24 4a37
00000010: ccfc 5237 0d77 0a35 1f8a 8d34 6cbc 0937
00000020: 1c96 2237 6bfc 7d37 8f41 3b37 2c59 4e37
00000030: 7395 b033 e77c 9d35 831c 4a37 cddb 0636
00000040: 83e7 4837 49c5 3d36 5569 8336 8d69 fd34
00000050: fd0b a735 52fa 7336 a742 2837 212c 0537
00000060: f534 1937 7c61 0936 cf9f f736 4055 6736
00000070: dbbf 2a36 f2e5 2137 8b53 4137 8d2b 1e37
00000080: 140a 6b37 d7fd ad36 38dd 6f35 8554 1737
00000090: fbdb a236 725f 2332 42f5 b535 2b8b 7236
6.427137e-07 2.6046173e-06 2.1673698e-06 1.20485765e-05 1.2575834e-05 5.158225e-07 2.6363793e-07 8.209707e-06
9.6909025e-06 1.5138746e-05 1.1161333e-05 1.2299319e-05 8.222823e-08 1.1733763e-06 1.2046777e-05 2.0095497e-06
1.1974832e-05 2.827803e-06 3.9163665e-06 4.720172e-07 1.2445959e-06 3.6355527e-06 1.0029099e-05 7.937692e-06
9.131841e-06 2.0471334e-06 7.379778e-06 3.4471304e-06 2.5443649e-06 9.649886e-06 1.1523148e-05 9.427674e-06
1.4009438e-05 5.1853526e-06 8.9356354e-07 9.01998e-06 4.8535853e-06 9.5095505e-09 1.355693e-06 3.6141817e-06

exp_avg f4 [1, 40]
00000000: 0680 f8bc 899e fabc 3152 843d 1116 cebd
00000010: cd27 f0bd fbbb 16bc de20 1fbc 341a dabd
00000020: df14 d1bd 5820 f33d 4764 e03d f434 ddbd
00000030: 4458 0eba d267 4bbc 2e64 ed3d ec02 74bd
00000040: 171d e2bd e849 2d3d 43c4 59bd ddc4 0b3b
00000050: 950b 36bd 6709 5fbd 3545 cabd 8024 e43d
00000060: 142d cdbd a5cd 163d f3c2 e23d e503 d83c
00000070: 6faa b7bd 8edc db3d ab5a e43d 8ffb a5bd
00000080: 0c43 fbbd d11c 89bd c402 b53c aabc c0bd
00000090: e885 8a3d 0e02 dcb9 fc09 30bd 26cb 29bd
-0.030334484 -0.030593174 0.06460989 -0.100628026 -0.117263414 -0.0092000915 -0.009712426 -0.10649529
-0.10209059 0.118714035 0.109566264 -0.10801116 -0.0005430023 -0.012414889 0.115913734 -0.0595731
-0.11040705 0.04230681 -0.053165685 0.0021327056 -0.04444464 -0.054452326 -0.098764814 0.11139774
-0.100183636 0.03681721 0.1107234 0.026369045 -0.089680545 0.10735427 0.11150106 -0.081046216
-0.122686476 -0.066949494 0.022096045 -0.09410985 0.06763822 -0.000419632 -0.04297827 -0.041453503

exp_avg_sq f4 [1, 40]
00000000: cf42 af3c 703c d43b 61e7 4f3c c44c 363e
00000010: 421e 7c3e d0f2 0c3a b068 5d3c 4f04 273e
00000020: 1d8e 083e 8549 573e 96f3 483e 0859 543e
00000030: 8167 823a 5bcc 2d3b cff1 7c3e c8c7 943c
00000040: fb14 503e d800 753d 912b 163d 6a2c d239
00000050: bcd6 953b 054e d53c 0131 003e b492 373e
00000060: 1d60 483e 3064 5b3d 1d36 203e ff7d 7b3c
00000070: 3ab9 a33d e77d 493e 8dc7 443e 95cc f43d
00000080: 5b15 833e f57c 4f3d f9a7 213b 14cf 463e
00000090: 5364 253d bafe 9537 dfa3 aa3b 8ccb 543c
0.021394162 0.0064769313 0.012689442 0.17802721 0.24620917 0.0005376758 0.013513729 0.16310237
0.13335462 0.21024139 0.1962417 0.20737088 0.000994906 0.002651951 0.24701618 0.01816167
0.20320503 0.059815258 0.036662642 0.00040087412 0.0045727175 0.02603818 0.12518694 0.17927057
0.19567914 0.053562343 0.15645643 0.015349864 0.079943135 0.19676934 0.19216748 0.119530834
0.2560223 0.050656278 0.002466677 0.19414932 0.04037888 1.78808e-05 0.0052075232 0.0129879825

exp_avg f4 [1, 40]
00000000: 01ea 023c c393 803b 3ad3 9bb9 330d 823c
00000010: 9f54 aa3c b5d4 863a 3693 d1bb 9d6a 863c
00000020: 99ed 7e3c fb7c 8fbc 0475 9abc f511 973c
00000030: e59a 81ba 1f56 0d3b 9bd4 b0bc e5eb 933b
00000040: 2a55 9e3c 3d2c 17bc 67df 163c ea74 2eba
00000050: b1b1 083b fd14 e53b 830d 773c d2c8 98bc
00000060: c98e 993c 8fea 22bc 180b 90bc 382e 0fbb
00000070: c266 253c 9f69 96bc 0531 8dbc 0fe1 493c
00000080: ea25 b03c 4e5a 083c 7a39 33bb 8389 943c
00000090: ee71 b7bb bc92 16b9 cf8b 223b 1987 563b
0.007990361 0.0039238646 -0.0002972128 0.015875435 0.020792304 0.001028678 -0.0063957227 0.016408259
0.015559577 -0.01751565 -0.018854626 0.01844118 -0.0009888081 0.0021566225 -0.021585753 0.004514205
0.019327719 -0.009226856 0.009208537 -0.0006654995 0.0020857865 0.0069910274 0.015078905 -0.018650446
0.018744843 -0.009943618 -0.017583415 -0.0021847617 0.0100953 -0.018360911 -0.017235288 0.012321725
0.021502454 0.008322312 -0.002734749 0.018131977 -0.0055982983 -0.00014359778 0.002480257 0.0032734333

exp_avg_sq f4 [1, 40]
00000000: 5525 9d38 1d6c d13a 6159 b33a 7bd2 463b
00000010: 81e6 ee3a 6de1 a739 1ee9 4538 2f52 a73a
00000020: 811c 243b 4b6b 7d3b f88a 0e3b bdd2 273b
00000030: 9852 5d38 8c05 563a d41d cd3a 4aed 783a
00000040: a58b 2a3b 5add b539 ee92 b43a 7649 7c39
00000050: 3efb 493a 662d dd3a d2bb 373b 2ae6 623a
00000060: cd90 943a 3fdf 9939 b76c 6c3a 7830 de3a
00000070: a938 a639 d75e b63a 6307 163b 5945 393b
00000080: b9bd 123b 0952 ee3a aa30 233a cd36 823a
00000090: 6700 0e3b b2d4 a536 4f58 633a 4ccb fb3a
7.493297e-05 0.0015977655 0.0013683253 0.0030337858 0.0018226655 0.00032020677 4.7185567e-05 0.0012765581
0.0025041404 0.0038668688 0.0021750312 0.0025607788 5.2767427e-05 0.00081642787 0.0015649148 0.0009495808
0.0026023176 0.0003468793 0.0013776699 0.00024059959 0.00077049795 0.0016874492 0.0028035534 0.0008655513
0.0011334658 0.00029348765 0.00090188853 0.0016951701 0.00031704202 0.0013913763 0.0022892586 0.0028270094
0.0022390916 0.0018182407 0.0006225208 0.0009934545 0.002166772 4.942144e-06 0.0008672522 0.0019210367
