Other models and process/lightning_logs/version_0/checkpoints/epoch=4-step=250.ckpt (torch, 300447 bytes, 33 tensors)

model.param_proj.proj.0.weight f4 [1, 40]
000000 58 81 0a 3e 6c fc b2 bd 1d 63 89 be d7 54 31 bd
       0.13525903 -0.08739552 -0.2683343 -0.0432938
000010 a0 06 3d 3e 53 37 35 be 65 80 7f 3d 9c b3 b2 be
       0.18459558 -0.17696886 0.062378306 -0.34902656
000020 2d 10 2a 3e 29 96 6a 3e 7d 3e 32 3d ad a9 48 3e
       0.16607733 0.22908844 0.043516625 0.19595976
000030 d4 04 9c 3e 69 6a 50 be 90 9e 32 3d 2b ae 0d 3e
       0.30472434 -0.20353092 0.04360825 0.13835971
000040 45 5f 10 be b8 b7 1c be c3 f8 4d 3d 32 6e 63 3d
       -0.14098842 -0.15304458 0.050286066 0.055525012
000050 d2 a8 02 bd bd 33 94 be 08 7d 77 be cc 18 03 bd
       -0.03189928 -0.28945723 -0.2416879 -0.03200607
000060 84 d7 8b bc c2 90 f3 bb 35 6b 11 3e 07 f9 a6 be
       -0.01707054 -0.007433028 0.14201052 -0.32611868
000070 28 66 a2 3e ee d9 5e be 0b 46 08 3e 1a 55 4c ba
       0.31718564 -0.21762821 0.1330797 -0.00077946635
000080 79 83 00 3e 43 a8 e0 bc 6d 35 14 3e 84 f4 13 be
       0.12550153 -0.027423983 0.14473505 -0.14448744
000090 ca cb 6f 3e 8c e8 6f be 1b 2a 4c be f9 48 a1 be
       0.23417583 -0.23428553 -0.19937937 -0.31500986

model.param_proj.proj.1.weight f4 [1, 40]
000000 e2 e2 d7 bd e6 7e f4 bd 64 a3 34 be 46 55 2e be
       -0.10541321 -0.119382665 -0.17640454 -0.17024717
000010 58 c7 67 3d 21 58 1d be ca f7 f4 3d 76 b2 2a ba
       0.056586593 -0.1536565 0.119613245 -0.0006511578
000020 bb 58 bc bc a0 31 08 bd fc d5 03 3d 9f 7d d7 3c
       -0.022991529 -0.03325045 0.032186493 0.026305018
000030 3e 7d fd bd fb f7 3b 3b c3 94 9c 3d 40 40 01 3e
       -0.12377404 0.0028681743 0.076455615 0.12622166
000040 1d c9 f5 3d 63 8b bd bd 94 0a 02 3e 77 e0 24 3e
       0.1200125 -0.092551015 0.12699348 0.16101252
000050 b3 95 2f 3c c3 36 03 be 9b ef 0a 3d aa f0 d7 3c
       0.010716843 -0.12813859 0.03391991 0.026359875
000060 de ce 14 be 18 28 2c be 70 0b d1 3d c9 9d ac bc
       -0.14532039 -0.1681217 0.1020726 -0.021071332
000070 18 86 0b 3e 78 6a 81 bd f7 dc 0f 3e af 75 3b 3e
       0.13625371 -0.063191354 0.14049135 0.18306611
000080 e7 b8 b9 3d db 99 af 3d 9c bd 0d be 46 28 4b bd
       0.090684704 0.085742675 -0.13841861 -0.049598955
000090 a8 a5 fa 3d b8 be 20 be e8 81 80 bd 26 ab 19 bd
       0.12238628 -0.15697753 -0.06274778 -0.037516735

model.param_proj.proj.2.weight f4 [1, 40]
000000 d9 2c ce bd 9d 18 61 bd 4f 1c e2 bc dd b3 15 3e
       -0.10067148 -0.054955114 -0.02760139 0.14619394
000010 90 34 f2 bd 05 8e fe 3c d4 f8 2f be 9b db 2c 3e
       -0.11826432 0.03107358 -0.17184764 0.16880648
000020 6c b4 28 be ce 36 a2 bd 45 88 ca bd 87 19 58 be
       -0.16475075 -0.079206094 -0.098892726 -0.21103488
000030 78 d9 4d be 98 17 48 3e 87 bc 05 be a5 dd cd 3d
       -0.20102489 0.1954025 -0.13060199 0.10052041
000040 01 53 37 3d b7 f4 1e bd 64 38 11 be ed 95 5a bd
       0.044756893 -0.038807597 -0.14181668 -0.053365637
000050 2d fc 16 3e 10 ec 37 3e a6 3f 50 3e 21 6d 32 3e
       0.14744635 0.17961144 0.2033678 0.17424442
000060 50 b1 fa 3d 6c e2 89 bc fc ac f7 3c 93 d6 3a 3e
       0.12240851 -0.0168316 0.030233853 0.18245916
000070 31 e6 ff bc e2 98 2f 3e a1 09 93 bc 24 0a 80 3d
       -0.031237694 0.17148164 -0.017948927 0.06251934
000080 c6 7b 97 3c 5a de ae 3d 8e f4 3c be 2d 7b ff 3d
       0.018491637 0.08538504 -0.18452665 0.12474666
000090 3a 43 4a be d6 af 4c 3d 17 fa 19 bc 3e 39 a4 3d
       -0.19752207 0.049972378 -0.009398005 0.080187306

model.rnn.weight_ih_l0 f4 [160, 21]
000000 af 44 ac bd 2f ba 75 3d 9d 15 9e bd d5 50 5e 3d
       -0.08411538 0.05999201 -0.07718966 0.054276306
000010 0b 3b be bd e5 dd 6e 3b 38 f6 c9 3d eb 19 8b bd
       -0.09288605 0.0036448177 0.098614156 -0.06792053
000020 eb af 02 3e dd 6d 9a bd af 62 ef bd 3c 93 57 bd
       0.1276242 -0.07540486 -0.11688744 -0.052630648
000030 93 7f b9 bb aa 42 01 be 05 ee d2 bc 04 99 ca bd
       -0.00566096 -0.12623087 -0.025748262 -0.09892467
000040 90 ca b9 3a fc 3c 86 bd a0 dd 70 bd 59 bb c4 be
       0.0014174748 -0.065546006 -0.058805108 -0.38424185
000050 76 c5 b0 bd 5a 14 ac 3c e0 8f 6d 3d 0c 42 f8 3d
       -0.08631413 0.021005798 0.057998538 0.121219724
000060 66 94 f0 3d cf 02 b0 3b d6 e4 ee 3d a9 64 40 3c
       0.11747055 0.0053714286 0.11664741 0.011742749
000070 38 7c 92 3d 72 b8 b4 3d 32 a7 00 3e 4f 5d 94 bd
       0.07152599 0.08824243 0.1256378 -0.0724436
000080 05 5d c7 3d 5b 3c d0 3d e9 ca 2e 3e 87 b1 96 bd
       0.09734539 0.10167762 0.17069592 -0.073580794
000090 e0 28 33 3e 95 5a 4b be 10 12 e6 3d e5 3f ff 3d
       0.17496061 -0.19858773 0.11233914 0.12463359
0000a0 46 78 95 bd f8 a2 20 3e 87 71 0c bd 59 87 d0 3d
       -0.07298331 0.15687168 -0.034287956 0.101820655
0000b0 f3 b9 d9 3d d1 b7 08 bd fc 85 e3 3d 59 d0 27 3e
       0.1063117 -0.033378426 0.1110954 0.16388072
0000c0 e4 9a 60 bd 48 55 08 3e dd 93 c3 3d 90 56 6f 3e
       -0.054835215 0.13313782 0.09549687 0.23372865
0000d0 ff 00 06 3d 51 08 13 3e f7 fa d1 3c ac c9 af bc
       0.032715794 0.14358641 0.025632365 -0.02145847
0000e0 82 aa 0b 3e 95 06 90 3e d3 93 14 bd c4 cf cd 3d
       0.13639262 0.28130022 -0.03627379 0.10049394
0000f0 27 24 05 3d b6 8d 83 3e 74 29 56 3e 22 45 25 3e
       0.03250518 0.25694054 0.2091425 0.16139653
000100 ab 2a b0 3d c2 2e ad bd 7e fa 6b bd 56 42 30 3e
       0.08601888 -0.08456184 -0.057611935 0.17212805
000110 83 1b 19 bd 73 33 c2 bd 62 40 ef 3d c2 83 65 3e
       -0.037379753 -0.094824694 0.11682202 0.22413543
000120 29 8d da bd c1 12 44 3e 60 78 50 bd 8d 18 b6 3b
       -0.106714554 0.19147779 -0.05089605 0.005557126
000130 4d 5c d8 bd d1 a6 01 be 8a 76 20 3d c2 06 96 bd
       -0.1056448 -0.12661292 0.039175548 -0.07325508
000140 c4 06 8d bd a8 46 df bd 7b 3b 31 be 0e e2 b3 bd
       -0.06886056 -0.109021485 -0.17307846 -0.08783351
000150 4c b0 49 bd 26 39 51 3d 79 55 39 ba 5e 7b 01 3e
       -0.049240395 0.05107989 -0.00070699264 0.12644717
000160 39 81 8e bd ff 5d 0d 3e 4f 76 d0 3d 34 fd ae bd
       -0.06958241 0.13805388 0.101788156 -0.085443884
000170 60 34 60 3d 50 f9 08 3e fb f3 0c bd b5 a8 6a 3d
       0.05473745 0.13376355 -0.034412365 0.057289798
000180 f2 ff d8 3d eb f7 28 3e 14 aa 2f 3e 70 92 4e 3c
       0.10595693 0.16500823 0.17154723 0.012608156
000190 c0 1a 2a bd 99 c8 62 3d ba 26 03 bd 6c 2d ee bd
       -0.041529417 0.055367086 -0.032019354 -0.11629757
0001a0 77 e3 08 bc 0a 87 73 3a 4a a7 1d 3d 31 4d 55 bd
       -0.008355013 0.0009289837 0.038489617 -0.05207557
0001b0 1e 49 26 3e 65 9d 13 3d 59 db dc bd b8 d3 0b 3c
       0.1623883 0.036038775 -0.10784025 0.008534364
0001c0 3b aa 67 bd 7d 1e 18 3e d1 7e 9e 3d b0 28 09 bd
       -0.05655883 0.1485538 0.07739032 -0.03348607
0001d0 2f b3 f8 3d 7a 96 e8 bc 6e 6a 61 bb 8e d2 bf 3d
       0.121435516 -0.028392065 -0.0034395712 0.09366332
0001e0 6a 1f 17 3e 78 0c 15 3d 4f 45 ec bc 7d 6d 0a 3e
       0.14758077 0.036388844 -0.028841643 0.13518329
0001f0 dc 71 4b be 9b 3a b4 3d 90 a3 73 bd 16 53 58 3e
       -0.19867653 0.088002406 -0.059482157 0.21125445
000200 66 ce 0d 3d d2 71 19 3d be fb ed 3d 7b 27 c7 3d
       0.034620665 0.037462063 0.11620282 0.09724327
000210 db ca ea 3d 58 c7 7d bd bc df 2f 3e fe 47 81 bd
       0.11464473 -0.061957687 0.17175192 -0.063125595
000220 e5 e0 6f bd cc 46 d9 3d a3 b8 64 bd 6c 9f 90 3c
       -0.058564086 0.106092066 -0.055840146 0.017654143
000230 8b 0e 32 3e 38 66 46 3e 31 83 34 3d c8 10 08 3d
       0.1738836 0.19374931 0.044070426 0.03321913
000240 ef 5b 3b 3e 56 a3 e8 3d cc a4 ac 3d cb 96 47 3e
       0.18296789 0.11359279 0.0842987 0.19491117
000250 5c 98 37 bd 24 c6 5a 3b c7 78 55 3d 25 72 29 bd
       -0.044823036 0.0033382261 0.052117135 -0.041368622
000260 19 11 8d 3d 5f ed 50 bd f3 9a 62 3d 7b 5a 52 3e
       0.06888027 -0.051007625 0.055323552 0.20542328
000270 fc 20 2a bd 9d 1f 28 bd 24 74 4a 3e cc 00 85 3d
       -0.041535363 -0.041045774 0.19770867 0.064942926
000280 78 a7 83 bd b6 07 b4 3d f0 d2 08 be f7 5c 56 3d
       -0.064284265 0.08790533 -0.13361716 0.052334752
000290 4c 1f 3d 3d 00 86 19 3e 31 74 a0 bd 4e 33 85 bb
       0.046172425 0.14992523 -0.07834662 -0.004064954
0002a0 86 21 7c 3d ff de d9 3d 50 95 d1 3d 1e fc 4e 3b
       0.061555408 0.10638236 0.10233557 0.003158338
0002b0 96 fe 64 bd 5c a8 7c 3d 13 13 5f 3e f2 f2 9b 3d
       -0.055906855 0.061683998 0.2178462 0.076146975
0002c0 9c ef 96 bd 6a a9 93 bd 75 76 2a 3d d7 81 a6 bd
       -0.073699206 -0.072100475 0.041616876 -0.08130234
0002d0 66 23 ef 3d 37 6d 25 bc 6e e1 38 3d 75 5b 22 3e
       0.116766736 -0.01009684 0.04513686 0.158552
0002e0 b6 6e 6b be 07 06 9e 3d 72 be 42 3e a2 65 8e 3d
       -0.22991452 0.077159934 0.19017962 0.06952979
0002f0 40 ed 33 3e 75 33 6d bd c8 69 b0 3b 3f 4f a1 bd
       0.17570972 -0.0579104 0.005383704 -0.07876443
000300 6e d0 86 3d 6d 98 14 3e ca 1b 16 be d5 ac 65 3d
       0.065827236 0.14511271 -0.14659038 0.05607303
000310 71 b5 51 3e a2 2b 58 bd 87 5c 1b 3d 87 07 30 3e
       0.2047937 -0.052775986 0.037930038 0.17190371
000320 99 78 0b be 01 ae 07 be 62 0d f9 3d b2 3f 0e be
       -0.13620223 -0.13249971 0.12160756 -0.13891485
000330 23 8b 0c be f3 fb d4 3c 55 2d ca bd f8 5a bf 3d
       -0.13724951 0.025999045 -0.09871928 0.09343523
000340 67 81 92 be f4 cb f5 3c f7 2f df 3d 93 f3 83 bd
       -0.2861435 0.030004479 0.108978204 -0.064429425
000350 29 66 3d 3e 6d 14 74 bd a3 41 da bd 92 64 4b 3e
       0.18496002 -0.059589792 -0.106570505 0.19862583
000360 df 13 9c 3d 0d db f6 3d 67 22 c7 bd 9d 6a 9c bd
       0.076209776 0.12053499 -0.097233586 -0.07637522
000370 d8 41 d4 3c 03 65 90 bb 4d 6f dc bd 92 5b 28 bb
       0.025910303 -0.004406573 -0.107634164 -0.0025689346
000380 8e 79 87 3d 62 74 2e 3e a0 5f 13 3d 3d cd f2 bc
       0.066149816 0.17036584 0.035979867 -0.02963888
000390 97 5e a2 bd a0 c3 a2 be c5 cd b5 bd f4 65 34 bd
       -0.07928198 -0.31789875 -0.08877138 -0.044042543
0003a0 c8 33 30 3d 6a 8c 1c 3e d1 ae df bc 35 b4 91 bd
       0.043018132 0.15287939 -0.027305039 -0.0711445
0003b0 ba fb bb bd 3a 4f 4f bc c8 f2 d5 bd 4f 1c c6 3d
       -0.091788724 -0.012653166 -0.104466975 0.09673368
0003c0 fb 14 c5 bd 82 97 96 bd 41 c3 1c 3c e8 08 0f be
       -0.09623142 -0.073531166 0.0095680365 -0.13968241
0003d0 b9 40 6d 3d 85 45 b0 bd 20 e9 10 be 71 d2 cc bd
       0.057923052 -0.0860701 -0.1415143 -0.10001076
0003e0 cf ff b1 bd a4 20 c0 bd 6f de 44 be 68 9a 07 3e
       -0.0869137 -0.09381226 -0.19225477 0.13242495
0003f0 cb 3a 32 3e 34 90 a0 bd ca 15 39 3e 3e 30 bb 3d
       0.1740524 -0.078400046 0.18074718 0.09140061

model.rnn.weight_hh_l0 f4 [160, 40]
000000 a8 61 c9 bb de 98 2c be 24 5e ef 3d 4a 13 0d 3e
       -0.0061456747 -0.16855189 0.11687878 0.1377689
000010 00 d9 8e 3c e7 5d f2 bd f3 32 b6 bd f0 8c ab bd
       0.017437458 -0.11834317 -0.088964365 -0.08376491
000020 9e 3b fe 3d 0d 52 95 3c 11 2f 9a bd dd 5b 92 3d
       0.12413715 0.018227601 -0.075285085 0.07146428
000030 e2 b5 ab 3b 0b 17 94 3d c0 77 18 3d 19 a0 7f 3d
       0.005240188 0.072309576 0.037223577 0.06240854
000040 83 10 1a 3e 6a ee 7d 3b 7a 58 0a 3e 88 93 6a 3d
       0.15045361 0.0038746842 0.13510314 0.057269603
000050 5c 8a 81 bd 38 2c 75 bd 70 ca ff 3d 5b 36 fd 3d
       -0.06325218 -0.059856623 0.12489784 0.12363883
000060 6d 6f d0 3d 24 c6 67 3c 5d a9 ab bd 31 16 1c be
       0.10177503 0.0141463615 -0.08381913 -0.1524284
000070 75 05 b6 3d 96 17 26 3e ad 5c 2d 3e c2 a9 fc bd
       0.088877596 0.16219935 0.16929884 -0.12337066
000080 71 7f 9c bd 98 97 31 3d cd 4b cd bd 47 b9 1a 3d
       -0.07641495 0.04335746 -0.100242235 0.03777435
000090 a6 f0 bc 3d 39 22 a7 3c 66 b2 9b bd 86 36 04 bd
       0.092255875 0.02040206 -0.07602386 -0.03227856
0000a0 45 15 28 3b 45 6c 84 3d ea ce 7a bd 67 91 f1 3d
       0.0025647443 0.06465963 -0.061232485 0.117953114
0000b0 08 ce 40 3d 93 77 32 bd 84 64 bd ba 43 cd da bd
       0.047071487 -0.043571066 -0.0014449512 -0.10683682
0000c0 55 ec d0 bd 7a f4 f4 3d 3e 2c 15 be df 0d 6b bd
       -0.10201327 0.11960693 -0.14567658 -0.057386275
0000d0 54 3e 86 bd 93 88 25 3d 38 a2 b9 bd 4a b9 df 3c
       -0.06554857 0.04041345 -0.09064144 0.027310032
0000e0 19 ac f9 bd 8c ff ba 3d 1e f4 77 bd a8 51 af 3d
       -0.12191028 0.09130773 -0.060535543 0.085604966
0000f0 c8 ab 58 b9 1b fb b6 bd 38 a0 b8 3d fa 1c 94 bc
       -0.00020663359 -0.08934613 0.09014934 -0.018080223
000100 8c bc 94 bc cf ca 11 3d 22 f0 99 3d c4 10 ca bd
       -0.018156312 0.035593804 0.07516505 -0.09866479
000110 65 84 6f 3c a2 97 26 3e 93 c1 8e 3d 30 89 27 3d
       0.014618968 0.16268781 0.06970515 0.040902317
000120 72 2c 84 3d 6f 50 08 3e c3 3f 0d be 83 89 da 3d
       0.0645379 0.13311933 -0.13793854 0.106707595
000130 b2 c8 34 3e c2 1f dc bd ae ba da 3d f1 80 22 bd
       0.17654684 -0.10748245 0.106801376 -0.03967375
000140 ac 42 67 3b 8c 01 16 3e 85 17 82 3d de 9c 27 bd
       0.0035287542 0.14649028 0.06352142 -0.040921085
000150 50 f0 f1 3d 81 1a ec 3c cc 3e 22 be 8d 9d bd 3d
       0.11813414 0.028821232 -0.15844268 0.09258566
000160 89 2e 8d bc 6e 21 05 3e 77 b1 1c bd 9b 43 07 3e
       -0.017234104 0.13001034 -0.03825518 0.13209383
000170 de bf 03 3e db cb b1 bc 32 3d 50 3e ed 48 1f bd
       0.1286616 -0.021703651 0.20335844 -0.038887907
000180 b8 33 e3 bd 6c 88 81 3e 24 0e b5 bd fd 86 41 3e
       -0.11093849 0.25299394 -0.08840588 0.1889915
000190 39 74 78 39 f8 cd bf bd 74 c0 60 be 48 7c 38 3e
       0.0002369442 -0.09365457 -0.21948415 0.1801616
0001a0 05 02 7a 3e 8c 71 b2 bc f5 73 43 bd b7 dd 41 3d
       0.24414833 -0.021782659 -0.047718007 0.047330584
0001b0 21 f5 2b 3e 91 f9 f1 bd cd 77 5f 3d a1 84 35 be
       0.16792728 -0.11815179 0.05455761 -0.17726375
0001c0 77 0a 09 3e 4b e6 f9 3d c8 23 5e be 8e 97 1b be
       0.13382898 0.12202128 -0.21693337 -0.15194532
0001d0 70 65 6f bc c4 62 28 39 3d d1 2c 3d fa b8 a9 bd
       -0.014611587 0.00016058522 0.042191733 -0.082872346
0001e0 6b 12 16 3d 54 d2 2d be 86 67 9c bd db 46 98 bc
       0.03663866 -0.16974765 -0.07636933 -0.018588474
0001f0 bf 50 b0 3d 84 47 19 be 2e 2f d7 3a 09 9c f5 3d
       0.08609151 -0.14968687 0.0016417259 0.11992652
000200 7c 1e 6d bc ed bb 86 3d 7b ab bc 3d 6c fe 25 3d
       -0.0144726 0.06578813 0.09212395 0.04052584
000210 7a 2a 77 be 24 6d 15 3d dc cc 7b bc 7d 6e 18 3d
       -0.24137297 0.036481038 -0.0153686665 0.037214745
000220 b6 de 5b 3d 35 52 b1 bd e2 0c e7 bd 0e fc a3 3d
       0.05367919 -0.08658258 -0.11281754 0.0800706
000230 e9 ac e0 3d e4 96 bd bb fd 83 3d 3e 20 d4 b2 bd
       0.1097048 -0.00578581 0.18507381 -0.08731866
000240 04 92 7e 3d e3 70 d5 bd f3 e1 84 bd 55 06 87 3d
       0.06215097 -0.10421922 -0.06488409 0.065930046
000250 ed a9 19 be 48 66 b9 3d ff 9c 8f 3d f7 ae ed 3d
       -0.15006228 0.09052712 0.070123665 0.116056375
000260 f0 12 26 be 79 70 01 be 0e 8f 3b 3d 80 1b c8 3b
       -0.16218162 -0.12640561 0.045790724 0.006106794
000270 80 1c 6a 3d 5f 64 2a bd f0 fd d4 3d 4f 2c 96 bd
       0.057156086 -0.041599628 0.10399997 -0.0733267
000280 79 c6 0b 3e ab 13 05 3e ca 0b f5 3d 92 d4 15 3e
       0.1364993 0.12995784 0.11965139 0.1463187
000290 0b e0 b0 3d 81 d9 a4 bc 57 8d 85 bc 14 37 11 3e
       0.08636483 -0.020123245 -0.016302748 0.14181167
0002a0 76 f1 fe 3b c4 0b 89 3d 5e 94 83 bb ba 7c cd 3d
       0.007780249 0.06691697 -0.0040154895 0.10033555
0002b0 e1 1e 0b be 30 4d 47 bd 58 77 21 3d 93 b8 b0 3d
       -0.13585998 -0.048657596 0.039420456 0.08628955
0002c0 5d 5d 02 be 1b bc 5a 3c e0 c1 a6 bd d5 df 76 3c
       -0.12730928 0.013350512 -0.081424475 0.015068014
0002d0 58 6f ba 3d 31 64 2a bd 77 8f b5 bb 24 be f7 bc
       0.091032684 -0.041599456 -0.005540784 -0.030242033
0002e0 a2 a1 a5 bd 63 b5 83 3d b2 91 1e bd 8d 50 77 3d
       -0.0808747 0.06431081 -0.038713165 0.060379554
0002f0 d7 6b b8 3c ae f5 db bc 00 20 42 3d c4 22 0c be
       0.02251236 -0.026850548 0.0473938 -0.13685137
000300 2b ff bb bd de 91 8c bd 7c e9 32 bd 38 66 3f be
       -0.09179529 -0.068637595 -0.0436797 -0.18691337
000310 62 f9 dd bc 05 04 08 3d a7 91 b0 bc b8 0d b4 3d
       -0.027096454 0.03320696 -0.021553827 0.08791679
000320 86 b4 99 3d 27 a1 83 3d aa eb 39 3e 22 f4 94 3d
       0.07505135 0.06427222 0.18156305 0.07273127
000330 03 97 01 bd 7e 78 bd 3d b0 e0 5f bc bd e4 22 3e
       -0.031638157 0.09251498 -0.0136644095 0.15907569
000340 ba bf cb 3d 1f 63 d1 bd 1f bc d4 bc 19 e0 d6 bd
       0.09948678 -0.10223984 -0.02596861 -0.10491962
000350 2b 8c 2f be ce 24 94 3d 8a 0f e8 bd dc 56 9d 3a
       -0.17143314 0.072335824 -0.11331089 0.0012004036
000360 3d e5 28 3d 20 fc 0a be 7a c9 59 3d aa 41 ac 3d
       0.041234244 -0.1357274 0.05317066 0.08410962
000370 0f 59 e7 3d a6 f9 00 be a2 63 40 3e 73 70 15 be
       0.112962835 -0.12595233 0.18788007 -0.14593677
000380 99 25 12 bd 12 f8 46 bd 0a 48 cc bc 3f 22 1c 3e
       -0.035680387 -0.048576422 -0.024936695 0.15247439
000390 e6 41 80 bd a4 fd ae 3d a5 fd 8d 3d b3 9c a4 bc
       -0.06262569 0.08544472 0.069331445 -0.020094251
0003a0 73 bf 4c 3d ad 86 ed 3d 41 cb c3 3c bb a4 0e 3e
       0.049987268 0.11597953 0.02390063 0.13930027
0003b0 f8 24 04 be 74 84 16 3e 9e 52 b4 bd 78 01 43 3b
       -0.12904727 0.14698964 -0.088048205 0.0029755514
0003c0 e8 fa 16 3c f9 5c 4c 3e d0 a9 84 bd ad d2 83 bd
       0.009215094 0.19957341 -0.06477702 -0.064366676
0003d0 01 04 24 be ad 95 d3 bd 83 bd 88 bd 92 96 30 3b
       -0.16017152 -0.10331283 -0.066767715 0.0026945216
0003e0 e6 af 9f 3d 87 f7 29 3e ec 27 7d 3d 6e 51 b4 bd
       0.07797222 0.1659833 0.06180565 -0.08804594
0003f0 cd 5f f3 3d 70 c1 29 bd b9 a9 a6 bc 5c af 7e bd
       0.11883507 -0.041444242 -0.020344602 -0.062178954

model.rnn.bias_ih_l0 f4 [160]
000000 bb 2f c0 3d 62 6c 8f bd 0b eb 75 3e 38 4d bd bd
       0.09384104 -0.07003094 0.24015443 -0.09243244
000010 88 78 bc bd 14 58 f9 3d 56 a6 58 3e af e1 33 bd
       -0.09202677 0.12175003 0.21157202 -0.0439164
000020 ae 62 4b bd 05 af 87 3d e2 5a 46 3e 27 1f c8 bb
       -0.049654655 0.06625179 0.19370607 -0.0061072293
000030 76 59 a4 bd 5b df e6 3d 04 4d 83 bd 5f 1e 4a 3e
       -0.08024876 0.112730704 -0.06411174 0.19738148
000040 d5 eb 39 3e 9e c9 2e 3d d0 6c 52 bd dc d3 ce 3d
       0.18156369 0.042672746 -0.051373303 0.10099003
000050 69 a8 92 bb 92 aa 82 bd 72 73 28 3e 7c 05 8e bc
       -0.0044756425 -0.0638019 0.16450289 -0.0173366
000060 5e b2 7d bc 8a e9 67 bb 34 cf 06 3e 70 27 73 3e
       -0.015484421 -0.0035387003 0.13164979 0.23745513
000070 29 15 83 3d ad 79 92 3c cb a0 2a 3e 61 e3 1b 3e
       0.0640052 0.017880285 0.166629 0.15223457
000080 9b ac b7 bd f9 57 5f 3c 55 49 35 3d b1 e9 32 3e
       -0.08968469 0.013631814 0.044259388 0.17471959
000090 ed d7 54 3e ba e0 88 3c a1 6c cb 3d 07 a4 0f be
       0.20785494 0.01670872 0.09932829 -0.14027415
0000a0 f7 9b ed 3d 64 2e d8 3d d2 3b 0e 3e be 92 85 3d
       0.116020136 0.10555723 0.13890007 0.065221295
0000b0 08 ec 95 bd f3 61 9d 3d 2c a2 81 3b 4d 03 88 3c
       -0.0732041 0.07684698 0.0039561 0.016603136
0000c0 cb 1d 78 3d 9c 35 07 be f2 01 10 3e 9c 46 a7 bd
       0.060575288 -0.13204044 0.14063242 -0.081677645
0000d0 13 df 76 3d 58 21 18 be 7f cb c9 3d 06 59 9a bc
       0.060271334 -0.1485647 0.09853267 -0.018841278
0000e0 a3 f8 df bd 44 fa a8 bd 4b 81 b0 3c 90 62 2d 3e
       -0.109360956 -0.082508594 0.021546027 0.1693213
0000f0 ba 39 77 3c 9e 37 04 be c8 e0 2f 3e 82 f0 86 3d
       0.015089447 -0.12911841 0.17175591 0.06588842
000100 50 60 0c 3e f6 0b 82 3d 04 05 0e be 81 6c 65 3d
       0.13708615 0.063499376 -0.13869101 0.05601168
000110 07 95 30 bd 3d 2d 22 be 7f 7c a9 3b f3 14 83 bd
       -0.043110874 -0.1583757 0.005172312 -0.0640048
000120 f6 d6 44 bd 34 b3 9e bd 6d de 38 3e 88 29 2c be
       -0.048056565 -0.07749024 0.18053599 -0.16812718
000130 98 3f aa bc 71 5e 1d bd 2f d9 01 3e 40 44 26 bd
       -0.020782277 -0.038420144 0.12680505 -0.040592432
000140 9f 78 ba 3c 46 a7 94 3d a7 a4 1d 3e 82 88 a4 bd
       0.022762595 0.072584674 0.15394841 -0.08033849
000150 77 d8 e0 3d 33 98 10 3e 01 91 45 be 9e ca 19 3e
       0.109787874 0.1412056 -0.19293596 0.15018699
000160 7e 5a 68 be c0 ae 41 3e e4 1c f1 bd 75 51 ab 3d
       -0.2269077 0.18914318 -0.117730886 0.08365146
000170 b2 cc 15 be 8d ec 29 bb c8 64 0f 3e 3e d4 0f 3c
       -0.14628866 -0.0025928349 0.14003289 0.00877863
000180 da e6 c6 3d 9c 76 8d 3d 24 94 28 3c a1 64 82 bd
       0.09712 0.069073886 0.010289226 -0.0636685
000190 72 26 3d 3e 0d 64 51 be ad 32 40 3d bb 8a bd 3d
       0.18471697 -0.20448323 0.04692333 0.09254976
0001a0 c8 b2 1e bd c0 45 d3 bd 36 0f 78 3d 26 de 90 3d
       -0.038744718 -0.10316038 0.06056138 0.070736215
0001b0 7b 3b 66 3c 73 40 e3 bd dd 00 97 3b da a6 b5 bd
       0.014052267 -0.11096277 0.004608257 -0.08869715
0001c0 8e 90 d8 3c 2c 38 49 3e 00 ca 13 be 08 11 03 be
       0.026436117 0.19650334 -0.14432526 -0.12799466
0001d0 f4 d5 88 bd f0 af f1 bd 84 e2 6c 3d 34 06 23 be
       -0.06681433 -0.118011355 0.05783321 -0.15920335
0001e0 bf d4 3f bd ae dd 8c 3c 2e b2 4b 3d 7e 1f 3b b9
       -0.04683375 0.017195549 0.049730472 -0.00017845441
0001f0 a3 92 6b bd 12 16 eb 3d e6 80 31 bd a9 0a 25 3e
       -0.05751289 0.11478819 -0.043335818 0.16117348
000200 89 ab df bc c2 7c 95 bd b8 e6 c0 3d d4 9f 06 3d
       -0.027303474 -0.07299186 0.09419006 0.032867268
000210 c6 4b 47 3d 29 e1 51 3d 74 ed ed bd 82 2a f8 3d
       0.048656248 0.05124012 -0.11617556 0.12117483
000220 c4 cd 16 3e 79 ed 16 3d fb 09 5e 3e 04 4e d1 3d
       0.14726931 0.036847565 0.21683495 0.102199584
000230 97 05 ac bd f3 5e 67 3d 49 d5 aa bd 94 98 22 bd
       -0.08399504 0.056487035 -0.08341462 -0.03969629
000240 fd 1c be bb 86 8a 04 3d 2c e0 43 3e 2c 4a 26 3e
       -0.0058017955 0.03235867 0.19128484 0.16239232
000250 88 3b a0 bc 3e 9d bb bd 0e 57 4a bd a5 5e 0a 3c
       -0.019559637 -0.09160851 -0.049399428 0.008445417
000260 3b f9 2c 3c 43 4b 06 3e c3 17 b8 bd 28 06 8c 3d
       0.010557468 0.13114648 -0.08988907 0.06837112
000270 54 a5 4b 3e 8b 3b ff bd 2b 58 50 bd d7 b8 61 3d
       0.19887286 -0.12462529 -0.050865334 0.055107918

model.rnn.bias_hh_l0 f4 [160]
000000 38 fb 0d 3e e0 f6 8e bd b9 1d fa bc 9d a6 99 3b
       0.13865364 -0.069806814 -0.030531751 0.0046890513
000010 4b b9 9e bd e2 29 60 bd 9d 66 76 3e 8b 10 8e 3c
       -0.077501856 -0.054727443 0.24062581 0.017341873
000020 0b a2 52 3e 32 59 00 3d d4 8b 57 3d 66 d5 34 bb
       0.20569627 0.031335063 0.052623585 -0.0027593016
000030 2e 68 c4 3d 25 fb 06 3c b9 d2 54 3e e5 e9 cb 3d
       0.09590183 0.008238588 0.2078351 0.09956721
000040 72 20 5c 3d 14 b7 d8 bc 00 c9 33 3d a0 90 f5 3d
       0.05374188 -0.026454486 0.04389286 0.11990476
000050 3c 00 8e 3d c7 b7 f0 bb 6e 12 32 bd f8 2a f7 3d
       0.069336385 -0.0073461267 -0.043474607 0.120687425
000060 aa b6 f9 bd ae a6 67 3d e3 25 5c 3e 59 e1 4b 3e
       -0.121930435 0.056555443 0.21498828 0.19910182
000070 f0 06 4d 3e 77 06 05 3e 43 5a 66 3e e1 07 cf 3c
       0.20022178 0.12990747 0.2249537 0.025272312
000080 30 44 9c bd f4 6f 38 3e 31 1c 75 3e 5f 79 8a 3c
       -0.07630193 0.18011457 0.23936535 0.016903577
000090 68 5a 56 3d 7c a5 7c 3d c1 95 62 3e e0 a2 d7 bd
       0.052332312 0.061681256 0.22127439 -0.10529113
0000a0 07 b2 ac 3d 01 d6 0e bc 0b 68 e8 bd e8 39 63 bd
       0.084323935 -0.008718015 -0.113479696 -0.055475146
0000b0 a6 06 4c bd 2f 23 10 be 0b 5b 95 bd 36 72 c9 3d
       -0.049811028 -0.14075921 -0.07292756 0.09836237
0000c0 fb 40 1e 3e c0 d3 54 3d 5b 17 ec 3a 48 6d 31 3c
       0.15454476 0.051959753 0.0018012332 0.010829277
0000d0 62 df 87 3d 27 17 ce bc d8 7e 30 3d e8 50 fa bd
       0.06634404 -0.025157524 0.043089718 -0.12222463
0000e0 a9 fc 5a bd 82 70 ae bd e0 95 c0 bb 8e 20 29 bd
       -0.05346361 -0.08517553 -0.0058772415 -0.041290812
0000f0 e3 85 18 bd 60 92 c1 3c af af ea 3d e0 91 e7 3d
       -0.03723706 0.023629367 0.1145929 0.1130712
000100 0a 4d 86 bd 3e 2a 01 be a8 bc 7d 3d 28 54 10 3c
       -0.06557663 -0.1261377 0.061947495 0.008809127
000110 83 f9 e6 3c e3 1c f6 3d c3 b4 31 bd dd 2c 17 be
       0.028195148 0.120172285 -0.04338528 -0.14763208
000120 02 c0 7e bd e4 82 16 bd 69 61 db bc 45 84 a0 bd
       -0.06219483 -0.03674592 -0.026779847 -0.078377284
000130 5a 9f b2 3d 60 06 af 3d 5c fc 96 3d 94 18 f0 3b
       0.087218 0.08546138 0.073723525 0.0073271487
000140 18 70 c5 3d 11 42 a3 bc a7 b7 7a 3d ac 11 1c 3e
       0.09640521 -0.019928964 0.0612103 0.15241116
000150 d6 95 bf bd e0 20 c9 3d 7a 85 e0 3c be 75 92 3d
       -0.09354751 0.098207235 0.027407397 0.07151364
000160 18 b4 00 be 61 ff 7c 3d 15 f1 b0 bd db 21 a0 3d
       -0.125687 0.061766986 -0.08639733 0.078189574
000170 f1 37 e7 bc 05 7a 9e bd 66 07 c4 3d a0 42 93 bd
       -0.028224917 -0.07738117 0.09571724 -0.07190442
000180 32 be ba bd 09 11 9e 3d 7e ed 04 bd 93 04 2a 3e
       -0.09118308 0.07718093 -0.032453053 0.16603307
000190 58 8d d1 3d e6 37 3b be 5e e4 80 bb 4c 92 7e 3c
       0.10232037 -0.18283042 -0.0039334735 0.01553781
0001a0 de ff b4 3d 81 c9 a8 bd 15 69 a0 bc 76 b4 2f 3d
       0.08837865 -0.08241559 -0.019581357 0.04289671
0001b0 06 25 32 3e 05 c1 dd 3c 92 df 00 bc 38 ce f1 bd
       0.17396936 0.027069578 -0.007865803 -0.11806911
0001c0 d7 51 2e 3e 7a d7 fe 3d a1 cd 0d bd 47 4b 93 3c
       0.17023407 0.12443443 -0.03461993 0.017980231
0001d0 a9 ae 4d 3d a2 4c a2 3a 01 55 08 bd 50 3e a1 3d
       0.050215397 0.0012382457 -0.03328419 0.07873213
0001e0 12 68 77 bd fb b4 79 3d 02 59 82 3d 37 d1 b2 3c
       -0.060401984 0.060963612 0.06364633 0.021828277
0001f0 ec ca b6 bd a6 ce 5b 3d 23 c8 5b 3e 9a 17 c8 3d
       -0.08925423 0.053663872 0.21463065 0.09770127
000200 d8 2a d8 3d 1f ef b1 3d d9 c1 da bd 1f b5 cc bd
       0.10555047 0.08688187 -0.10681505 -0.099954836
000210 6c 82 50 3e 7a f8 cb 3c 0a 90 2b 3e a8 61 17 3e
       0.20362252 0.024898756 0.16754165 0.14783347
000220 57 71 ac bd f9 2a 29 3c 12 8e 73 3e 1c ff 47 3c
       -0.08420055 0.010325187 0.23784664 0.012206819
000230 19 90 0b 3c 66 fa 08 3d 69 d7 1d bd 6b dc cb 3c
       0.008518242 0.033441924 -0.03853551 0.024885377
000240 fb 85 1d bd b6 36 35 bd 75 04 0d 3e 7f e7 39 bb
       -0.03845785 -0.04424163 0.13771231 -0.0028366742
000250 8e 8a 86 3d 4a 69 a9 3d 8b fe ec 3c 8c c9 ea 3d
       0.06569396 0.082720354 0.02892997 0.11464223
000260 02 3e 30 3e 23 74 b0 3d 41 72 df 3c 13 20 7b 3c
       0.17211154 0.08615901 0.02727616 0.015327471
000270 2f 39 14 bd 30 96 57 bb d6 bb e5 3d 6f fe 74 3d
       -0.036187347 -0.0032895915 0.112174675 0.05981296

model.rnn.weight_ih_l1 f4 [160, 40]
000000 89 1b 14 3b c2 d2 f9 bc 89 06 2f 3e 33 02 0a be
       0.002259942 -0.030496005 0.17092337 -0.13477401
000010 5d e8 f5 bd d2 69 72 3d 36 37 7c 3d 69 c7 1b 3e
       -0.120072104 0.05918295 0.06157609 0.15212788
000020 7b fc 11 bd 30 42 54 bd f4 7b 49 bd 3d 78 d1 bc
       -0.035641175 -0.051820934 -0.049190477 -0.02557003
000030 f5 b0 b0 3c 62 74 07 3e 15 32 21 be 0a 7a 59 3d
       0.021568755 0.1322799 -0.15741761 0.0530949
000040 81 5d 22 3e 07 63 30 bd 8f 5d 63 3e f6 bb 19 3e
       0.15855981 -0.04306319 0.22203659 0.15013108
000050 a3 20 87 bd 64 ce 99 3d e5 67 f9 3c 0d 9d 4e 3c
       -0.06598022 0.07510069 0.030445049 0.012610686
000060 a6 02 58 3d a4 91 07 bd 2c 37 36 3d a9 b6 12 be
       0.0527369 -0.033097878 0.04448621 -0.14327492
000070 ed f9 00 be e6 a0 23 be 23 aa db bd d2 55 27 3d
       -0.12595339 -0.15979347 -0.107258104 0.04085333
000080 16 78 c9 3d 29 fe dc 3d bf 70 b2 3c 94 66 5e 3d
       0.09837358 0.10790665 0.021782277 0.054297045
000090 f2 e4 0f 3d 09 24 ab 3d 22 11 b1 bd 53 97 ea bd
       0.03513045 0.083564825 -0.08645846 -0.11454644
0000a0 92 8a f6 3d 49 70 57 bd 75 e4 4e be 62 43 2c 3e
       0.12038149 -0.052597318 -0.20204337 0.1682258
0000b0 57 2a f4 3c c2 8a 72 3d 82 18 80 3d ae 86 c3 bd
       0.029805345 0.05921436 0.062546745 -0.095471725
0000c0 e5 cd ee bd 83 39 f2 bc 96 c2 1e bd 9e e1 5b 3d
       -0.11660365 -0.02956844 -0.03875979 0.053681962
0000d0 17 6d 13 be 1c 6a 66 bd 44 07 80 bd 93 77 01 3e
       -0.14397083 -0.056253538 -0.06251386 0.1264327
0000e0 a5 a6 8c 3d f4 71 84 3d 5f 55 61 be b5 b8 be 3d
       0.068677224 0.06467047 -0.22005223 0.09312574
0000f0 ca df 7b bd 0e 3d 3e 3d 84 29 b7 bc 24 33 d8 3d
       -0.06149272 0.046444945 -0.022358663 0.10556629
000100 2e f4 64 3d b5 52 5b 3d f2 3d 16 3e 0d f9 21 3e
       0.05589693 0.053545672 0.14672068 0.15817662
000110 2d 1c dc bd ab 4d c0 3d b3 4f f8 bc f4 6d 01 be
       -0.107475616 0.09389814 -0.030311441 -0.126396
000120 2c b0 10 3e 4f 53 b9 bd 68 58 d9 bd 0f 89 49 bd
       0.14129704 -0.09049093 -0.10612565 -0.049202975
000130 16 73 ee bd 72 54 57 bd 7c ff f3 bd 5b dd 2b 3e
       -0.11643045 -0.052570768 -0.11913964 0.16783659
000140 46 1a e4 bd 48 52 04 3e 48 99 3a bd 1b 2b 2c 3e
       -0.11137824 0.12922013 -0.045556337 0.16813318
000150 e1 fd 1c be 3c 9b 7b 3d ea 6d 0c be 79 c6 ec 3d
       -0.15331222 0.06142734 -0.13713804 0.11561293
000160 75 43 2f be fc af 28 3d 48 df f7 bd 90 d3 2c 3e
       -0.17115577 0.041183457 -0.121031344 0.1687758
000170 da 8d 9d bd c2 a8 97 3d 28 82 40 3e 22 1e 0a bd
       -0.07693072 0.07405235 0.1879965 -0.033720143
000180 d7 7e fb 3d 8a 7f f6 3d 1d ab 52 bd d9 3b 25 3e
       0.12280052 0.12036045 -0.051432718 0.16136111
000190 e2 6d 67 3d 13 49 70 3d c5 4c 03 3e 52 06 ed 3d
       0.056501277 0.05866344 0.12822254 0.11573471
0001a0 41 7c 88 3d c9 0e 28 be df 41 8f bd be 76 0a 3e
       0.066643246 -0.1641189 -0.06994986 0.13521859
0001b0 81 d7 55 bc 2f 54 8c 3a fe 12 82 bc d4 58 83 bd
       -0.013051868 0.0010706241 -0.015878197 -0.06413427
0001c0 cc fd 6d bd cc 6f 01 3e e9 3f b0 3d 41 4c 0f 3e
       -0.058103368 0.12640303 0.0860594 0.13993932
0001d0 b3 de 31 3e 7b 79 68 bd 5e ef 8e bd 8b cc b3 ba
       0.1737011 -0.056756478 -0.069792494 -0.0013717575
0001e0 00 34 27 3e 1b 25 2f bc 16 2f 14 be b4 57 32 3d
       0.1632843 -0.010689999 -0.14471087 0.04354067
0001f0 27 aa e7 3c 95 ab 4a bd b7 ae 80 bd 80 81 84 3d
       0.028279377 -0.04948004 -0.06283324 0.06470013
000200 b2 10 4c be fd 2f a5 bd 1d bb 12 be 0c 78 92 3d
       -0.19928244 -0.08065794 -0.1432919 0.071518034
000210 59 e5 2a be ea 73 42 3e a5 72 84 bd e3 59 28 be
       -0.16689052 0.1898953 -0.06467179 -0.16440539
000220 a2 9a 0e 3e 99 e6 e0 3d 85 96 4c bd 27 87 02 3e
       0.13926175 0.10981483 -0.049948234 0.12746869
000230 ef e8 78 3d de 89 b6 3c f4 7a a9 bd c4 e4 11 bd
       0.060769018 0.022282537 -0.082754046 -0.03561856
000240 f8 d0 36 be 27 b6 92 3c c9 11 4d be f2 ec 22 3e
       -0.17853153 0.017909123 -0.20026316 0.159107
000250 33 d6 1a 3e 9d c5 1e 3e fb c8 82 bd 91 90 1f be
       0.15120773 0.15505071 -0.0638599 -0.15582491
000260 16 17 46 3e fb 93 28 3e db a0 3b be 56 ff 26 be
       0.19344744 0.164627 -0.1832308 -0.1630834
000270 9f 09 f7 3d b6 25 bd 3d a5 64 92 3d ef 41 97 3d
       0.12062382 0.092357084 0.07148103 0.07385623
000280 c5 61 0c 3e b0 c5 0c 3b 32 06 3f be f8 fc 3a 3d
       0.13709171 0.0021480136 -0.18654707 0.045651406
000290 69 48 03 be 3a c2 d3 bb 7f 59 c4 3b 81 c1 fd 3c
       -0.12820591 -0.0064623626 0.005992114 0.030976059
0002a0 e2 9d d2 bc 8e 25 44 3d f1 ae a1 bc d8 65 4a 3d
       -0.02571005 0.047887377 -0.019736739 0.049413532
0002b0 88 b4 77 be 3e 58 ba bc ac d5 0e bd 02 67 e2 bd
       -0.24189961 -0.022747155 -0.034871742 -0.110548034
0002c0 b7 ee 18 3e 3b 2d 36 bd 4e c2 6b bd 49 8f 90 bc
       0.14934812 -0.04447673 -0.05755835 -0.017646449
0002d0 95 b5 27 3e c4 09 28 be c4 5c 88 bd c8 00 5a be
       0.16377862 -0.16409975 -0.06658319 -0.2128936
0002e0 31 e3 9f 3c 04 34 3b 3d 31 39 19 be d1 12 52 bc
       0.019517513 0.045703903 -0.14963223 -0.012821869
0002f0 a1 ba 4c 3d cf 59 01 be 75 ae d9 bd 68 9f 8a be
       0.04998267 -0.12631916 -0.10628978 -0.27074742
000300 de bd b0 3d 94 8d 7c 3c ef 68 16 bd d3 4d 21 be
       0.08629964 0.015414614 -0.036721166 -0.15752344
000310 47 05 2a 3e c1 7c d6 3c 21 e8 53 be 5e 29 fe bc
       0.16603576 0.026182534 -0.20694019 -0.031025585
000320 ac 9c 75 bd d3 f2 93 bd cf 56 9a bd f1 46 28 3e
       -0.059963867 -0.072240494 -0.07536089 0.16433312
000330 25 ff fb 3d 7d 3f 11 be 09 31 58 3d 75 56 1e 3e
       0.12304524 -0.14184375 0.05278114 0.15462668
000340 8a 27 9b 3d fb 9d 55 bd 55 60 ff bd 20 71 10 be
       0.07575901 -0.052152615 -0.12469546 -0.14105654
000350 11 b7 2b bd c1 2e e5 3d 55 9e c7 bd 0d c6 03 bd
       -0.041922633 0.11190558 -0.09746996 -0.032171298
000360 c2 e5 2e be 45 46 05 be b7 30 7e be 70 7a d3 bd
       -0.17079833 -0.13015087 -0.2482327 -0.103260875
000370 c7 ed 85 3d ef 03 21 3b 30 5e a5 3d 47 b2 03 be
       0.06539493 0.0024568995 0.080746055 -0.12860976
000380 79 ce ad bd 5a 24 e3 3d b8 2e f1 3d 07 46 0b be
       -0.08486647 0.11090918 0.11776489 -0.13600932
000390 41 69 d6 bd cf 96 3d 3e e8 7e 80 3d c9 14 fa bd
       -0.10469294 0.1851456 0.062742054 -0.12210996
0003a0 84 6f 18 bd 90 4b c5 bd 32 2a 28 bd aa 45 81 bd
       -0.037215725 -0.09633553 -0.041055866 -0.063121155
0003b0 ba 6e 66 bc 82 c2 41 3d 56 73 16 bd 65 69 94 3d
       -0.014064485 0.047304638 -0.036731087 0.07246665
0003c0 64 85 84 bd 1f 75 4f 3e 61 44 c0 bd d6 00 37 3e
       -0.06470755 0.20259522 -0.09388042 0.17871413
0003d0 60 3d 21 3e 13 5a 5c 3e c2 9a 25 be 03 e8 94 3b
       0.15746069 0.21518736 -0.16172317 0.0045442595
0003e0 40 61 51 be 8d 00 da 3c 8f 45 33 3d 37 f1 57 3e
       -0.20447254 0.02661159 0.043767508 0.2108811
0003f0 5b 5a 3a bd 58 24 4c 3d ae 05 6b 3d 56 22 d2 bd
       -0.045496326 0.049839348 0.057378463 -0.10260455

model.rnn.weight_hh_l1 f4 [160, 40]
000000 c3 7a b1 3d 04 4b 9f bd 59 b5 4e 3c a1 1b 0a be
       0.08665993 -0.0777798 0.012616479 -0.13487102
000010 7f bd c1 bd cd f7 e2 3a 42 ab 12 3e 10 de cc bd
       -0.09459972 0.0017316282 0.14323142 -0.100032926
000020 ad cc f3 3d cb 0d da 3d 86 f1 af bd 14 a1 90 3d
       0.11904273 0.10647162 -0.08590989 0.07061973
000030 16 ce 64 bd 57 e2 11 3e f4 11 12 3e a3 76 14 3e
       -0.0558606 0.14246498 0.14264661 0.14498381
000040 69 7a 1f bd f6 85 fe 3c ba e1 36 3c 1f f8 94 3c
       -0.0389351 0.031069737 0.011162216 0.01818472
000050 6e 2e 95 3d ad bb 49 bd f6 ab b9 3b 1c 51 5a 3c
       0.072842464 -0.049251247 0.0056662513 0.013325002
000060 18 a9 b4 3d cf 0b 1b be 67 5d 8e bc 5a f7 d3 bc
       0.088213146 -0.15141223 -0.017378522 -0.025874782
000070 4f 26 ed bc 4f 9b ff 3d 3f dc 13 3d 1a e6 82 bd
       -0.028948931 0.12480795 0.036098715 -0.06391545
000080 76 ea 4e 3d 27 2c e4 3d a0 1a b6 3d cc 30 eb 3d
       0.050516568 0.11141234 0.08891797 0.11483917
000090 7b 9d 06 be 09 ed fb 3a 4a fe d4 bd 5d 57 91 bc
       -0.13146012 0.0019220422 -0.10400064 -0.017741853
0000a0 16 4b de 3c 78 9b c5 3d c1 0b 23 bb 36 e8 93 bb
       0.027135413 0.09648794 -0.0024878832 -0.0045137657
0000b0 a0 10 fa bb 53 67 44 bc fc 11 d7 3d 4b bd e0 3d
       -0.0076313764 -0.011987525 0.10501477 0.10973605
0000c0 b0 1a 53 bd c7 85 41 bd 51 03 92 3d 7f 93 25 be
       -0.051539123 -0.04724672 0.07129539 -0.16169547
0000d0 8a cb c5 3d 86 36 ac bc 39 71 03 bd d4 e4 8e 3d
       0.096579626 -0.021022093 -0.0320904 0.06977239
0000e0 02 56 ab bd 88 f3 3c 3e e7 bc cc 3d c1 cf bf 3d
       -0.08366014 0.18452275 0.09996968 0.09365798
0000f0 45 f9 a6 bd 2b f2 82 3d 4b 3a 07 3e 7c 13 12 3d
       -0.08153013 0.06393846 0.13205831 0.035663113
000100 b3 44 a7 3d 33 6b 23 3e 96 15 10 be 1a d2 21 3e
       0.081674 0.15958862 -0.14070734 0.15802804
000110 c0 b9 15 3e c0 d8 b7 bd 39 4a b4 bd d2 a4 10 be
       0.14621639 -0.08976889 -0.08803219 -0.14125374
000120 4b 03 08 be 97 cb 3d 3d 6e d9 0c be 2f 29 29 3e
       -0.13282506 0.046336737 -0.13754818 0.16519617
000130 b9 89 cd 3d 7e cf d7 bd c3 c2 d3 3d d2 f0 aa 3d
       0.10036034 -0.10537623 0.10339882 0.08346714
000140 24 db 7b bd 0b 7e 18 be 55 52 81 3c f2 b2 01 bd
       -0.061488286 -0.14891832 0.01578633 -0.031664796
000150 c0 42 56 38 e7 14 03 be c7 64 25 bb 05 5e 18 3d
       5.108374e-05 -0.12800942 -0.002523707 0.03719904
000160 7a 40 2f 3c aa a3 89 bd 88 76 1d be 55 eb 73 bd
       0.010696525 -0.067206696 -0.15377247 -0.059550602
000170 7e 06 13 3e aa cc 99 bd cf 5e f0 bd 00 29 d6 3d
       0.14357945 -0.0750974 -0.11736833 0.10457039
000180 68 54 a8 3b cf 43 17 3d 8e 72 f9 bd 22 01 04 3e
       0.005137015 0.0369299 -0.12180053 0.12891057
000190 a2 12 59 bd fe 06 de bd e6 e8 e1 bd c5 b9 c6 bd
       -0.052996285 -0.108411774 -0.1103075 -0.097034015
0001a0 3c a7 19 be 78 ba fa 3d 7f d3 fd 3d 22 45 bb 3d
       -0.15005201 0.12242597 0.12393855 0.091440454
0001b0 91 e4 1f 3e 2a 83 b2 3d d4 ff e4 3d 1b 08 e3 bd
       0.15614535 0.08716424 0.11181608 -0.1108553
0001c0 ef 85 cf bc a6 da 6e 3d 12 97 28 3e 64 d0 36 3d
       -0.02533242 0.05831399 0.16463879 0.04463233
0001d0 89 f2 61 bc 10 ca f6 bc 66 35 22 be dc 56 20 be
       -0.013790735 -0.030125648 -0.15840682 -0.15658134
0001e0 61 d1 51 3d 04 66 1e be ab dd 19 be e4 d4 a1 3b
       0.05122507 -0.15468603 -0.15025966 0.0049387086
0001f0 13 88 27 3e 64 1a 28 be f7 e3 22 3e 2a f7 16 3d
       0.16360502 -0.16416317 0.15907274 0.036856808
000200 bc 81 91 bd 17 2d 1f be 36 be 83 bd 58 b3 1d be
       -0.07104823 -0.15544544 -0.06432764 -0.15400445
000210 9a 9e f4 bd 5e 52 13 3e c3 05 23 3e ab 72 29 3d
       -0.11944313 0.1438689 0.15920167 0.04136912
000220 92 b0 9b 3d 32 25 6a bd 27 6f 40 3d d6 cc 9a 3c
       0.076020375 -0.05716438 0.046981003 0.018896502
000230 a1 70 0b 3e 66 53 d5 3d 19 f4 d7 3c 16 b6 4d 3d
       0.13617183 0.104162976 0.026361512 0.05022248
000240 81 c5 a3 3d c1 b0 b2 bd 36 1c c1 3c a8 99 56 3d
       0.07996655 -0.087251194 0.023573022 0.05239263
000250 ec 56 db 3d 62 59 36 bd d8 16 99 3c 47 f7 7c bd
       0.107099384 -0.044518836 0.01868765 -0.06175926
000260 d4 23 0f 3e 8b e7 d0 3b 8f b3 eb bd 66 c4 31 3e
       0.13978511 0.0063752583 -0.115088575 0.17360076
000270 31 e8 80 bc 8a b4 eb bd a6 c1 ec bd 98 06 21 be
       -0.015735717 -0.115090445 -0.11560373 -0.15725172
000280 e0 df 00 be f0 bd f1 bd 68 42 23 be 49 02 21 bc
       -0.12585402 -0.11803806 -0.159433 -0.009827205
000290 42 9a bb bd 10 66 88 bd 96 86 ac 3c 9e c4 9a 3d
       -0.09160282 -0.06660092 0.02106027 0.07557033
0002a0 db ef f3 3d 50 20 c9 3c 09 0b 76 3d 6b 0c 81 3d
       0.11910983 0.02455154 0.060069118 0.06301197
0002b0 66 63 80 bd 2a 1f 26 bd ba c1 50 3e 1e 9b 50 3e
       -0.06268959 -0.040557064 0.20386401 0.20371673
0002c0 12 ad 20 3e 67 c0 bf 3d 1f 31 3a 3e 8a 92 a8 bc
       0.15691021 0.0936287 0.181828 -0.020577688
0002d0 33 fb b7 3d 4d 53 8e bd 39 ed e2 3d 03 75 4e be
       0.08983459 -0.06949482 0.11080403 -0.20161824
0002e0 1c 0b e2 bd e9 65 7a bd 18 de c8 3c 18 45 d7 bd
       -0.11037275 -0.061132345 0.024519965 -0.105112255
0002f0 6a bd b8 bc 34 0e 92 bd be a6 30 3e 5d a2 89 bd
       -0.022551257 -0.07131615 0.17251107 -0.067204215
000300 92 67 27 3d 15 0b d2 bc c7 2f 42 bb f5 7e d0 bd
       0.040870257 -0.02564005 -0.0029630528 -0.10180465
000310 36 3d 3f bc a6 a0 0e be 1a f4 09 bb 35 3f 27 be
       -0.011672309 -0.1392847 -0.0021050037 -0.16332705
000320 db ec 06 3e 5b d2 bd bd b8 d9 70 bd f8 12 55 bd
       0.1317629 -0.09268638 -0.058801383 -0.052020043
000330 fa 16 1e bd 22 2e 9d 3b c0 8a c0 3c 8c ec da bc
       -0.03859613 0.004796759 0.023503661 -0.026724122
000340 4e 2b dc 3d a4 8c 0f bd 54 89 90 bd a2 12 79 39
       0.10750447 -0.035046235 -0.07057443 0.00023753432
000350 47 c0 7b 3d d0 2d e8 bd e3 9d 53 3c 53 95 cc 3d
       0.061462667 -0.11336863 0.012916061 0.09989419
000360 36 9e de 3c 8f af 46 3d 55 01 60 bd 82 07 16 3e
       0.02717505 0.04850727 -0.05468877 0.14651302
000370 ea a4 23 3e 65 b5 0b be 2e 30 50 3d a8 39 85 3d
       0.15980878 -0.13643415 0.050827198 0.06505138
000380 28 b3 b9 bd e8 41 84 3d 74 93 a4 bb 88 03 ca 3d
       -0.090673745 0.06457883 -0.0050224606 0.09863955
000390 b3 44 12 be 9c 90 34 bc 45 a0 c8 3d 60 a3 fb bc
       -0.14284019 -0.011020806 0.09796194 -0.030717552
0003a0 7d 9e 01 be d6 32 f4 3d 2a fa ef 3d bf b0 00 3e
       -0.12658115 0.11923759 0.11717637 0.12567423
0003b0 9b bc 86 3d 3f 90 0b be 3c 73 66 bd 68 a9 9e 3c
       0.065789424 -0.13629244 -0.05626224 0.019367889
0003c0 d5 b2 c7 3d 71 18 04 3a 26 8c 1e be 20 3e c1 3a
       0.097509064 0.00050390424 -0.1548315 0.0014743246
0003d0 7e 0d 11 3e 6b 62 e8 3c 6e c0 0a 3d e4 70 ab 3d
       0.14165303 0.028367242 0.03387492 0.083711416
0003e0 b7 77 8f 3d 5c 00 fe 3d d1 a3 4c 3e b8 b5 ad bd
       0.07005256 0.12402412 0.19984366 -0.08481926
0003f0 84 0b 0f 3e 32 51 ec 3c 4c 85 a9 3d ec 0b e4 bd
       0.13969237 0.02884731 0.082773775 -0.111350864

model.rnn.bias_ih_l1 f4 [160]
000000 01 d6 36 3d c6 84 1b bc d3 cb 3c bd be b9 13 3c
       0.044637684 -0.009492105 -0.04609282 0.009016452
000010 b1 72 64 3d ea 13 bf bd 58 79 15 bd 4d f6 0b 3d
       0.05577344 -0.0932997 -0.036492676 0.034170438
000020 36 53 66 bd be d3 28 bd ba c3 6b 3e f1 86 a4 bc
       -0.0562317 -0.041217558 0.23023883 -0.020083876
000030 e0 89 e4 3d 38 61 10 bd d4 6a 0d bc 1e 21 96 bd
       0.1115911 -0.035248965 -0.008631427 -0.07330535
000040 be dd f4 bd 5f a7 ec 3d 16 f5 bc 3d 17 ed f8 bc
       -0.119563565 0.11555361 0.09226434 -0.03038649
000050 d0 cf a2 bd f7 39 71 bd 3d e6 3f 3e 23 6c 05 bd
       -0.07949793 -0.05889317 0.18740173 -0.03257383
000060 90 f0 19 3e 3e f1 0b bd 49 22 ce 3d e3 ae 1c 3e
       0.15033174 -0.034165613 0.10065133 0.15301089
000070 e8 24 4e bd ef ed 34 3e cf e5 0d 3e 36 b7 ff bd
       -0.050328165 0.1766889 0.13857196 -0.124861166
000080 9f 5a 92 bd 4c 9b bd 3d 69 17 bf bd 72 82 ec 3d
       -0.07146191 0.09258136 -0.09330637 0.11548318
000090 de 77 fc 3c 9e dc f1 bd e7 69 08 3e e2 fe 00 3e
       0.030818876 -0.118096575 0.13321649 0.1259723
0000a0 28 fc 4c 3b b4 52 0f 3d 90 1a a5 3c 3e 84 25 3d
       0.0031278227 0.03499098 0.020154268 0.04040932
0000b0 c6 33 34 3e 93 37 88 bd 68 24 84 3d 59 3f 4e 3c
       0.17597875 -0.06651225 0.064522564 0.012588345
0000c0 df 8b fc 3d ef 0d 93 3d e1 c2 38 3e 15 09 10 bd
       0.12331366 0.07180392 0.1804309 -0.03516491
0000d0 49 7b 8e bd 84 85 07 3e 23 df 8a bc f6 4b 9f bc
       -0.069571085 0.13234526 -0.016952103 -0.0194454
0000e0 98 70 a6 bd fd bb 15 bd 95 d5 82 3d db 07 11 3e
       -0.08126944 -0.036556233 0.06388394 0.14163153
0000f0 66 91 3f 3c c6 3f c8 3d ee 63 b1 3d 12 cd f2 3d
       0.0116923805 0.09777789 0.08661638 0.1185552
000100 e1 66 7c 3d 50 ee 88 bd 95 96 99 bd a4 b9 2f bd
       0.06162155 -0.066860795 -0.07499424 -0.04290165
000110 d4 35 6c bd 93 e6 3d bd ed 32 f5 bd d5 49 37 bc
       -0.057668522 -0.04636247 -0.11972604 -0.0111870365
000120 8b 47 f1 bd e3 d6 2b 3d 35 90 0e 3d f2 53 e2 bc
       -0.11781224 0.04195298 0.034805495 -0.027627919
000130 a8 58 3a 3e ed c4 17 3e c9 fc 10 3d ce bf e6 3a
       0.18197882 0.14821215 0.035397325 0.001760477
000140 25 6a 1d 3e 8c 9b 76 bd 1a 0a f4 bd 0e 8c 17 be
       0.15372522 -0.060206935 -0.11915989 -0.1479952
000150 44 3e b6 3c fb 72 16 be f8 bb 38 bc e3 13 b9 bd
       0.022246487 -0.14692299 -0.011275284 -0.09036996
000160 96 b4 b6 3d 7f 89 e6 3c 06 fe a8 bb 0d b4 cf bc
       0.08921163 0.028141735 -0.005157235 -0.02535441
000170 ef f3 fe bc c6 03 8f bb 7a 56 58 3e b8 75 c3 3d
       -0.031122176 -0.0043644635 0.21126738 0.095439374
000180 80 3a 6b bd 8b 8c a8 bd 02 f7 40 bd 1b 15 f3 3c
       -0.057428837 -0.082299314 -0.047110565 0.02967315
000190 95 34 3a bd de f3 12 be 28 3e c4 bd 89 53 44 be
       -0.045460302 -0.1435084 -0.09582168 -0.19172491
0001a0 04 86 6d 3d 1b 77 e5 3d dd a8 f7 3d a5 5c 70 bd
       0.057989135 0.11204358 0.12092755 -0.058682103
0001b0 4c 78 c2 3c 8b 99 46 be 0f ee b7 3d 48 8e 26 3e
       0.023739003 -0.1939451 0.08980953 0.16265213
0001c0 ab cb 26 3e ae ae 24 3e a0 46 2f 3b 8f 9d 61 3c
       0.1628863 0.1608226 0.0026744977 0.013770475
0001d0 2a 41 5c ba 55 71 57 bd 59 f3 62 3a 59 07 ff bc
       -0.0008402044 -0.052598316 0.00086574774 -0.031131433
0001e0 d9 c4 8d 3d 1f b0 8e 3d c9 c4 80 bd 3b 8d 41 bd
       0.06922311 0.06967186 -0.06287534 -0.04725383
0001f0 ff 54 a0 3c c4 1a ce 3d 15 9d b2 3d db be 91 bc
       0.01957178 0.10063699 0.08721367 -0.017791202
000200 54 ed 61 bd 1d b7 38 bd 7b cb 24 bd 49 61 17 3e
       -0.055157974 -0.045096505 -0.040233117 0.14783205
000210 98 66 e7 3d c0 c8 3a 3e 6b 3d 46 3e 05 4c d4 bd
       0.11298865 0.18240643 0.19359367 -0.10366062
000220 9a 62 8d 3c 14 f9 32 3e 1a 5f d9 bd 5b 87 db 3c
       0.017258931 0.17477828 -0.10613842 0.026797941
000230 93 89 a2 bd b0 63 8b bd 00 cf fd 3d d6 24 13 3d
       -0.079363964 -0.06806123 0.12392998 0.0359238
000240 6d d9 58 3d 1f 42 38 bd ee f7 bf bd c4 e1 f2 3c
       0.05294173 -0.044984933 -0.09373461 0.029648669
000250 32 3a e0 bc 4d e4 02 3e 15 e1 25 3e 05 de 42 bd
       -0.0273715 0.12782402 0.16199143 -0.047575016
000260 d2 46 d8 bd 71 63 14 3d a9 f8 78 3d 0e 26 8b bd
       -0.10560383 0.036227647 0.060784016 -0.06794368
000270 2f 04 1f 3e 2b 85 07 bc 77 17 0c be cf ca 2c 3e
       0.1552894 -0.008271496 -0.13680826 0.1687424

model.rnn.bias_hh_l1 f4 [160]
000000 a6 bf cb bd 0c 4d 78 3d 77 97 ad 3d 22 6f 97 3c
       -0.099486634 0.060620353 0.08476155 0.01848561
000010 4c b8 35 3e f9 91 af bd e5 cc 2d bd 0f 3a e0 3d
       0.17746085 -0.08572764 -0.04243173 0.10948574
000020 3e b5 d3 3d 59 30 fa bd d8 26 b8 3d 62 6f 9b 3c
       0.103373036 -0.12216253 0.08991784 0.01897401
000030 ef 16 07 3e a4 6e b6 3d 41 b1 65 3e 2b 68 61 bd
       0.13192342 0.08907822 0.22430898 -0.055030983
000040 48 5c 06 be a4 dc 1a bc 95 79 46 3d 0d 61 4d 3d
       -0.1312114 -0.009452019 0.048455793 0.050141383
000050 84 58 9b 39 d2 a1 96 3d 66 12 b4 bd 90 60 61 3d
       0.00029629853 0.073550835 -0.08792572 0.05502373
000060 ee 48 46 bd 82 78 f9 3d 6a 07 03 be 4b cc bd 3c
       -0.048409395 0.12181188 -0.12795797 0.023168704
000070 99 4d 9c 3b 1a ef 25 bd 53 eb b8 3d 83 9e 0d bd
       0.0047699925 -0.04051123 0.090292595 -0.034574997
000080 23 2f e3 bd 57 11 28 3e ca 4f c3 3d c9 53 05 3e
       -0.11092975 0.16412865 0.09536703 0.13020243
000090 d7 ca 47 3e 3b ea 02 3e 2e dd b3 3d 11 a2 a2 bd
       0.19510971 0.12784664 0.08782421 -0.07941068
0000a0 e7 39 c5 3d 5b 7e c9 bd e5 92 0c be 8c e3 c7 bd
       0.096301846 -0.098385535 -0.13727911 -0.09760198
0000b0 77 3f d1 3d 4f bd 42 bb ac 61 03 3e 56 ed 40 3e
       0.10217183 -0.0029714887 0.12830228 0.18840536
0000c0 ae c2 2f 3d d7 e4 19 3c 68 ee ff bb b1 b2 04 3d
       0.04291027 0.009392939 -0.0078104027 0.032396976
0000d0 5c 66 4b bc d2 8b e6 3d 9b 3a 42 bd 88 f9 bd 3d
       -0.012414541 0.11257137 -0.04741917 0.0927611
0000e0 13 22 b2 bb 10 b8 87 bc d8 36 02 3e 03 76 3a bd
       -0.005436191 -0.01656726 0.12716234 -0.0455227
0000f0 34 d7 61 3d ec b6 33 bd 97 7f 92 bd 37 46 04 3e
       0.055136874 -0.04387562 -0.07153242 0.1291741
000100 f7 db 8e 3d cb 37 a5 bd ee 00 77 bc d4 48 a8 3c
       0.06975549 -0.08067282 -0.015075905 0.02054254
000110 16 ab 7d bd b6 81 1b 3e 67 ea fd 3d 89 33 ed bd
       -0.06193074 0.151862 0.12398224 -0.11582095
000120 28 31 b7 bd 21 f8 21 be 78 c2 f4 3d b6 d8 01 3e
       -0.08944923 -0.1581731 0.119511545 0.12680325
000130 d9 69 82 3d 61 82 0f 3e 92 50 02 3e 92 8c af bd
       0.06367845 0.1401458 0.12726048 -0.085717335
000140 f3 25 f0 bd c7 c9 af 3b cf f8 d2 3d b6 f8 4c 3d
       -0.11725988 0.00536463 0.10301363 0.050041877
000150 fb af 00 3e f0 eb 1d be e5 ae 0e 3d 7a 4a 33 bc
       0.12567131 -0.15422034 0.03483476 -0.01094305
000160 39 59 2d 3e 04 31 fd 3d 37 a3 6e bc d8 6e 52 3c
       0.16928567 0.123628646 -0.014565281 0.01284381
000170 27 dc 53 3d b5 3a 9e 3d 1d eb 0b 3d f4 f5 aa 3d
       0.051723626 0.07726041 0.03415977 0.08347693
000180 71 b1 95 ba a7 19 23 be 6b 0f 00 bd 88 e4 f9 3d
       -0.001142068 -0.15927754 -0.031264704 0.12201792
000190 37 1e e5 bd 60 cc ec bd 2f 60 34 be 76 88 24 bd
       -0.11187404 -0.11562419 -0.17614816 -0.0401692
0001a0 1e 71 26 be 54 31 19 3d bf 6d 57 3b ca 7f 6c 3d
       -0.16254088 0.03740056 0.003287181 0.057739057
0001b0 7d 7a 0f 3d 87 87 90 bc 7a 20 20 3e 79 87 92 3d
       0.035028923 -0.01764275 0.15637389 0.071547456
0001c0 fa 96 fa 3c f2 07 19 3e f1 9e ea 3d 53 ff 25 3d
       0.03058957 0.14944437 0.11456097 0.0405267
0001d0 df 8b 5d 3e c6 95 4d 3c 6b 62 04 be 9d a4 c8 bd
       0.21635388 0.012547916 -0.12928168 -0.097970225
0001e0 5b 4b 13 3e 4b 2e 89 bd b5 f6 c5 3d 71 0d 1c 3e
       0.14384215 -0.06698283 0.09666196 0.15239502
0001f0 3d a5 16 3e cd 48 b0 3d cd 0b d7 bd 39 0f c8 3d
       0.14711471 0.08607636 -0.10500298 0.097685285
000200 26 ae f0 3d f4 53 24 3e 6d 24 7b 3d 72 dc f5 3d
       0.11751966 0.1604765 0.061314035 0.12004937
000210 c4 00 00 be ee e6 06 3e 57 08 58 bd 98 91 be bd
       -0.12500292 0.1317403 -0.05274233 -0.093051136
000220 96 dc 49 bd 98 c4 90 3d 16 3c 3b bd 3d f1 f0 bc
       -0.049282633 0.07068747 -0.0457116 -0.029411906
000230 57 5f 0e 3c df 31 9f bd ba 30 91 bc fd 71 1b 3d
       0.008689723 -0.07773184 -0.01772343 0.037950505
000240 ae ff 11 3e 4f 82 03 3e f1 0b a7 3d e5 de c2 3d
       0.1425769 0.12842678 0.081565745 0.0951517
000250 fe fa 17 3e b0 56 25 3d b2 93 48 bd d5 c4 06 3d
       0.1484184 0.040365875 -0.04896898 0.032902557
000260 8e 5a 9e bd b8 a3 95 bc e6 3b 46 3d ea 44 8e bd
       -0.07732116 -0.018266544 0.048396967 -0.06946738
000270 6f 44 c2 bb 75 a8 9e 3d 81 e8 02 bd 45 56 58 3e
       -0.005928568 0.077469744 -0.031960014 0.21126659

exp_avg f4 [1, 40]
000000 be 93 5f ba 82 12 d2 39 ba d5 b7 3a e2 3b c7 3a
       -0.000852879 0.0004006811 0.0014025487 0.0015200342
000010 26 fa 13 bb 03 8a ad 3a 32 9b f6 ba 17 21 ee 3a
       -0.002257952 0.0013239983 -0.0018814562 0.001816782
000020 fb 9f 22 bb 9e e5 61 ba 48 70 be ba db 8b bf ba
       -0.0024814594 -0.00086172845 -0.0014529312 -0.0014613824
000030 db 28 f6 ba 6c f5 13 3b 8d 8f f8 ba c4 c6 ab b9
       -0.0018780486 0.0022576703 -0.001896368 -0.00032763754
000040 24 d8 ce b7 ed 41 7e b8 14 53 85 ba c5 20 78 ba
       -2.4657762e-05 -6.0619717e-05 -0.0010171854 -0.0009465332
000050 8d 7b 02 3a 97 73 00 3b 26 d9 21 3b 9f d3 17 3b
       0.0004977517 0.0019600147 0.002469608 0.0023166907
000060 2f c8 01 3b ab ec 88 39 33 ac 7b b7 cc 0e 17 3b
       0.0019803157 0.00026116273 -1.5000859e-05 0.002304959
000070 43 85 cf ba 2c 23 2b 3b 3e 23 47 b9 a3 fd 89 38
       -0.0015832562 0.0026113493 -0.00018991248 6.5799126e-05
000080 82 1e d3 b9 8d 0e 14 39 e9 e1 d9 ba 1e 1c 4d 3a
       -0.00040267786 0.000141198 -0.0016623113 0.0007824319
000090 00 79 05 bb cc b0 8f 3a 09 b8 ac 3a d9 43 18 3b
       -0.002036631 0.0010962724 0.0013177405 0.00232338
